…
I0522 10:13:13.518720 19861 net.cpp:296] The NetState phase (0) differed from the phase (1) specified by a rule in layer accuracy
I0522 10:13:13.518854 19861 net.cpp:53] Initializing net from parameters: 
name: "CaffeNet"
state {
  phase: TRAIN
  level: 0
  stage: ""
}
layer {
  name: "data"
  type: "Data"
  top: "data"
  top: "label"
  include {
    phase: TRAIN
  }
  transform_param {
    mirror: true
    crop_size: 200
    mean_file: "./data/mean_lmdb_train/gtsrb_train_mean.binaryproto"
  }
  data_param {
    source: "./data/lmdb_train"
    batch_size: 256
    backend: LMDB
  }
}
layer {
  name: "conv1"
  type: "Convolution"
  bottom: "data"
  top: "conv1"
  param {
    lr_mult: 1
    decay_mult: 1
  }
  param {
    lr_mult: 2
    decay_mult: 0
  }
  convolution_param {
    num_output: 96
    kernel_size: 11
    stride: 4
    weight_filler {
      type: "gaussian"
      std: 0.01
    }
    bias_filler {
      type: "constant"
      value: 0
    }
  }
}
layer {
  name: "relu1"
  type: "ReLU"
  bottom: "conv1"
  top: "conv1"
}
layer {
  name: "pool1"
  type: "Pooling"
  bottom: "conv1"
  top: "pool1"
  pooling_param {
    pool: MAX
    kernel_size: 3
    stride: 2
  }
}
layer {
  name: "norm1"
  type: "LRN"
  bottom: "pool1"
  top: "norm1"
  lrn_param {
    local_size: 5
    alpha: 0.0001
    beta: 0.75
  }
}
layer {
  name: "conv2"
  type: "Convolution"
  bottom: "norm1"
  top: "conv2"
  param {
    lr_mult: 1
    decay_mult: 1
  }
  param {
    lr_mult: 2
    decay_mult: 0
  }
  convolution_param {
    num_output: 256
    pad: 2
    kernel_size: 5
    group: 2
    weight_filler {
      type: "gaussian"
      std: 0.01
    }
    bias_filler {
      type: "constant"
      value: 1
    }
  }
}
layer {
  name: "relu2"
  type: "ReLU"
  bottom: "conv2"
  top: "conv2"
}
layer {
  name: "pool2"
  type: "Pooling"
  bottom: "conv2"
  top: "pool2"
  pooling_param {
    pool: MAX
    kernel_size: 3
    stride: 2
  }
}
layer {
  name: "norm2"
  type: "LRN"
  bottom: "pool2"
  top: "norm2"
  lrn_param {
    local_size: 5
    alpha: 0.0001
    beta: 0.75
  }
}
layer {
  name: "conv3"
  type: "Convolution"
  bottom: "norm2"
  top: "conv3"
  param {
    lr_mult: 1
    decay_mult: 1
  }
  param {
    lr_mult: 2
    decay_mult: 0
  }
  convolution_param {
    num_output: 384
    pad: 1
    kernel_size: 3
    weight_filler {
      type: "gaussian"
      std: 0.01
    }
    bias_filler {
      type: "constant"
      value: 0
    }
  }
}
layer {
  name: "relu3"
  type: "ReLU"
  bottom: "conv3"
  top: "conv3"
}
layer {
  name: "conv4"
  type: "Convolution"
  bottom: "conv3"
  top: "conv4"
  param {
    lr_mult: 1
    decay_mult: 1
  }
  param {
    lr_mult: 2
    decay_mult: 0
  }
  convolution_param {
    num_output: 384
    pad: 1
    kernel_size: 3
    group: 2
    weight_filler {
      type: "gaussian"
      std: 0.01
    }
    bias_filler {
      type: "constant"
      value: 1
    }
  }
}
layer {
  name: "relu4"
  type: "ReLU"
  bottom: "conv4"
  top: "conv4"
}
layer {
  name: "conv5"
  type: "Convolution"
  bottom: "conv4"
  top: "conv5"
  param {
    lr_mult: 1
    decay_mult: 1
  }
  param {
    lr_mult: 2
    decay_mult: 0
  }
  convolution_param {
    num_output: 256
    pad: 1
    kernel_size: 3
    group: 2
    weight_filler {
      type: "gaussian"
      std: 0.01
    }
    bias_filler {
      type: "constant"
      value: 1
    }
  }
}
layer {
  name: "relu5"
  type: "ReLU"
  bottom: "conv5"
  top: "conv5"
}
layer {
  name: "pool5"
  type: "Pooling"
  bottom: "conv5"
  top: "pool5"
  pooling_param {
    pool: MAX
    kernel_size: 3
    stride: 2
  }
}
layer {
  name: "fc6"
  type: "InnerProduct"
  bottom: "pool5"
  top: "fc6"
  param {
    lr_mult: 1
    decay_mult: 1
  }
  param {
    lr_mult: 2
    decay_mult: 0
  }
  inner_product_param {
    num_output: 4096
    weight_filler {
      type: "gaussian"
      std: 0.005
    }
    bias_filler {
      type: "constant"
      value: 1
    }
  }
}
layer {
  name: "relu6"
  type: "ReLU"
  bottom: "fc6"
  top: "fc6"
}
layer {
  name: "drop6"
  type: "Dropout"
  bottom: "fc6"
  top: "fc6"
  dropout_param {
    dropout_ratio: 0.5
  }
}
layer {
  name: "fc7"
  type: "InnerProduct"
  bottom: "fc6"
  top: "fc7"
  param {
    lr_mult: 1
    decay_mult: 1
  }
  param {
    lr_mult: 2
    decay_mult: 0
  }
  inner_product_param {
    num_output: 4096
    weight_filler {
      type: "gaussian"
      std: 0.005
    }
    bias_filler {
      type: "constant"
      value: 1
    }
  }
}
layer {
  name: "relu7"
  type: "ReLU"
  bottom: "fc7"
  top: "fc7"
}
layer {
  name: "drop7"
  type: "Dropout"
  bottom: "fc7"
  top: "fc7"
  dropout_param {
    dropout_ratio: 0.5
  }
}
layer {
  name: "fc8"
  type: "InnerProduct"
  bottom: "fc7"
  top: "fc8"
  param {
    lr_mult: 1
    decay_mult: 1
  }
  param {
    lr_mult: 2
    decay_mult: 0
  }
  inner_product_param {
    num_output: 43
    weight_filler {
      type: "gaussian"
      std: 0.01
    }
    bias_filler {
      type: "constant"
      value: 0
    }
  }
}
layer {
  name: "loss"
  type: "SoftmaxWithLoss"
  bottom: "fc8"
  bottom: "label"
  top: "loss"
}
I0522 10:13:13.518961 19861 layer_factory.hpp:77] Creating layer data
I0522 10:13:13.523380 19861 db_lmdb.cpp:35] Opened lmdb ./data/lmdb_train
I0522 10:13:13.547868 19861 net.cpp:86] Creating Layer data
I0522 10:13:13.547879 19861 net.cpp:382] data -> data
I0522 10:13:13.547909 19861 net.cpp:382] data -> label
I0522 10:13:13.547936 19861 data_transformer.cpp:25] Loading mean file from: ./data/mean_lmdb_train/gtsrb_train_mean.binaryproto
I0522 10:13:13.579526 19861 data_layer.cpp:45] output data size: 256,3,200,200
I0522 10:13:13.872265 19861 net.cpp:124] Setting up data
I0522 10:13:13.872306 19861 net.cpp:131] Top shape: 256 3 200 200 (30720000)
I0522 10:13:13.872310 19861 net.cpp:131] Top shape: 256 (256)
I0522 10:13:13.872313 19861 net.cpp:139] Memory required for data: 122881024
I0522 10:13:13.872324 19861 layer_factory.hpp:77] Creating layer conv1
I0522 10:13:13.872354 19861 net.cpp:86] Creating Layer conv1
I0522 10:13:13.872359 19861 net.cpp:408] conv1 <- data
I0522 10:13:13.872375 19861 net.cpp:382] conv1 -> conv1
I0522 10:13:15.222851 19861 net.cpp:124] Setting up conv1
I0522 10:13:15.222883 19861 net.cpp:131] Top shape: 256 96 48 48 (56623104)
I0522 10:13:15.222887 19861 net.cpp:139] Memory required for data: 349373440
I0522 10:13:15.222909 19861 layer_factory.hpp:77] Creating layer relu1
I0522 10:13:15.222920 19861 net.cpp:86] Creating Layer relu1
I0522 10:13:15.222923 19861 net.cpp:408] relu1 <- conv1
I0522 10:13:15.222929 19861 net.cpp:369] relu1 -> conv1 (in-place)
I0522 10:13:15.223349 19861 net.cpp:124] Setting up relu1
I0522 10:13:15.223357 19861 net.cpp:131] Top shape: 256 96 48 48 (56623104)
I0522 10:13:15.223361 19861 net.cpp:139] Memory required for data: 575865856
I0522 10:13:15.223362 19861 layer_factory.hpp:77] Creating layer pool1
I0522 10:13:15.223367 19861 net.cpp:86] Creating Layer pool1
I0522 10:13:15.223369 19861 net.cpp:408] pool1 <- conv1
I0522 10:13:15.223373 19861 net.cpp:382] pool1 -> pool1
I0522 10:13:15.223410 19861 net.cpp:124] Setting up pool1
I0522 10:13:15.223417 19861 net.cpp:131] Top shape: 256 96 24 24 (14155776)
I0522 10:13:15.223418 19861 net.cpp:139] Memory required for data: 632488960
I0522 10:13:15.223420 19861 layer_factory.hpp:77] Creating layer norm1
I0522 10:13:15.223429 19861 net.cpp:86] Creating Layer norm1
I0522 10:13:15.223453 19861 net.cpp:408] norm1 <- pool1
I0522 10:13:15.223456 19861 net.cpp:382] norm1 -> norm1
I0522 10:13:15.223878 19861 net.cpp:124] Setting up norm1
I0522 10:13:15.223886 19861 net.cpp:131] Top shape: 256 96 24 24 (14155776)
I0522 10:13:15.223888 19861 net.cpp:139] Memory required for data: 689112064
I0522 10:13:15.223891 19861 layer_factory.hpp:77] Creating layer conv2
I0522 10:13:15.223901 19861 net.cpp:86] Creating Layer conv2
I0522 10:13:15.223903 19861 net.cpp:408] conv2 <- norm1
I0522 10:13:15.223907 19861 net.cpp:382] conv2 -> conv2
I0522 10:13:15.231047 19861 net.cpp:124] Setting up conv2
I0522 10:13:15.231060 19861 net.cpp:131] Top shape: 256 256 24 24 (37748736)
I0522 10:13:15.231062 19861 net.cpp:139] Memory required for data: 840107008
I0522 10:13:15.231070 19861 layer_factory.hpp:77] Creating layer relu2
I0522 10:13:15.231074 19861 net.cpp:86] Creating Layer relu2
I0522 10:13:15.231076 19861 net.cpp:408] relu2 <- conv2
I0522 10:13:15.231081 19861 net.cpp:369] relu2 -> conv2 (in-place)
I0522 10:13:15.231487 19861 net.cpp:124] Setting up relu2
I0522 10:13:15.231496 19861 net.cpp:131] Top shape: 256 256 24 24 (37748736)
I0522 10:13:15.231498 19861 net.cpp:139] Memory required for data: 991101952
I0522 10:13:15.231500 19861 layer_factory.hpp:77] Creating layer pool2
I0522 10:13:15.231504 19861 net.cpp:86] Creating Layer pool2
I0522 10:13:15.231506 19861 net.cpp:408] pool2 <- conv2
I0522 10:13:15.231510 19861 net.cpp:382] pool2 -> pool2
I0522 10:13:15.231539 19861 net.cpp:124] Setting up pool2
I0522 10:13:15.231542 19861 net.cpp:131] Top shape: 256 256 12 12 (9437184)
I0522 10:13:15.231544 19861 net.cpp:139] Memory required for data: 1028850688
I0522 10:13:15.231546 19861 layer_factory.hpp:77] Creating layer norm2
I0522 10:13:15.231554 19861 net.cpp:86] Creating Layer norm2
I0522 10:13:15.231556 19861 net.cpp:408] norm2 <- pool2
I0522 10:13:15.231559 19861 net.cpp:382] norm2 -> norm2
I0522 10:13:15.231837 19861 net.cpp:124] Setting up norm2
I0522 10:13:15.231842 19861 net.cpp:131] Top shape: 256 256 12 12 (9437184)
I0522 10:13:15.231844 19861 net.cpp:139] Memory required for data: 1066599424
I0522 10:13:15.231846 19861 layer_factory.hpp:77] Creating layer conv3
I0522 10:13:15.231853 19861 net.cpp:86] Creating Layer conv3
I0522 10:13:15.231855 19861 net.cpp:408] conv3 <- norm2
I0522 10:13:15.231859 19861 net.cpp:382] conv3 -> conv3
I0522 10:13:15.242163 19861 net.cpp:124] Setting up conv3
I0522 10:13:15.242177 19861 net.cpp:131] Top shape: 256 384 12 12 (14155776)
I0522 10:13:15.242178 19861 net.cpp:139] Memory required for data: 1123222528
I0522 10:13:15.242185 19861 layer_factory.hpp:77] Creating layer relu3
I0522 10:13:15.242189 19861 net.cpp:86] Creating Layer relu3
I0522 10:13:15.242192 19861 net.cpp:408] relu3 <- conv3
I0522 10:13:15.242197 19861 net.cpp:369] relu3 -> conv3 (in-place)
I0522 10:13:15.242470 19861 net.cpp:124] Setting up relu3
I0522 10:13:15.242476 19861 net.cpp:131] Top shape: 256 384 12 12 (14155776)
I0522 10:13:15.242478 19861 net.cpp:139] Memory required for data: 1179845632
I0522 10:13:15.242480 19861 layer_factory.hpp:77] Creating layer conv4
I0522 10:13:15.242487 19861 net.cpp:86] Creating Layer conv4
I0522 10:13:15.242489 19861 net.cpp:408] conv4 <- conv3
I0522 10:13:15.242493 19861 net.cpp:382] conv4 -> conv4
I0522 10:13:15.254312 19861 net.cpp:124] Setting up conv4
I0522 10:13:15.254420 19861 net.cpp:131] Top shape: 256 384 12 12 (14155776)
I0522 10:13:15.254428 19861 net.cpp:139] Memory required for data: 1236468736
I0522 10:13:15.254437 19861 layer_factory.hpp:77] Creating layer relu4
I0522 10:13:15.254448 19861 net.cpp:86] Creating Layer relu4
I0522 10:13:15.254452 19861 net.cpp:408] relu4 <- conv4
I0522 10:13:15.254459 19861 net.cpp:369] relu4 -> conv4 (in-place)
I0522 10:13:15.254930 19861 net.cpp:124] Setting up relu4
I0522 10:13:15.254940 19861 net.cpp:131] Top shape: 256 384 12 12 (14155776)
I0522 10:13:15.254942 19861 net.cpp:139] Memory required for data: 1293091840
I0522 10:13:15.254945 19861 layer_factory.hpp:77] Creating layer conv5
I0522 10:13:15.254985 19861 net.cpp:86] Creating Layer conv5
I0522 10:13:15.254988 19861 net.cpp:408] conv5 <- conv4
I0522 10:13:15.254994 19861 net.cpp:382] conv5 -> conv5
I0522 10:13:15.263984 19861 net.cpp:124] Setting up conv5
I0522 10:13:15.263998 19861 net.cpp:131] Top shape: 256 256 12 12 (9437184)
I0522 10:13:15.264001 19861 net.cpp:139] Memory required for data: 1330840576
I0522 10:13:15.264014 19861 layer_factory.hpp:77] Creating layer relu5
I0522 10:13:15.264019 19861 net.cpp:86] Creating Layer relu5
I0522 10:13:15.264021 19861 net.cpp:408] relu5 <- conv5
I0522 10:13:15.264026 19861 net.cpp:369] relu5 -> conv5 (in-place)
I0522 10:13:15.264425 19861 net.cpp:124] Setting up relu5
I0522 10:13:15.264432 19861 net.cpp:131] Top shape: 256 256 12 12 (9437184)
I0522 10:13:15.264434 19861 net.cpp:139] Memory required for data: 1368589312
I0522 10:13:15.264437 19861 layer_factory.hpp:77] Creating layer pool5
I0522 10:13:15.264442 19861 net.cpp:86] Creating Layer pool5
I0522 10:13:15.264444 19861 net.cpp:408] pool5 <- conv5
I0522 10:13:15.264448 19861 net.cpp:382] pool5 -> pool5
I0522 10:13:15.264479 19861 net.cpp:124] Setting up pool5
I0522 10:13:15.264484 19861 net.cpp:131] Top shape: 256 256 6 6 (2359296)
I0522 10:13:15.264487 19861 net.cpp:139] Memory required for data: 1378026496
I0522 10:13:15.264488 19861 layer_factory.hpp:77] Creating layer fc6
I0522 10:13:15.264495 19861 net.cpp:86] Creating Layer fc6
I0522 10:13:15.264497 19861 net.cpp:408] fc6 <- pool5
I0522 10:13:15.264501 19861 net.cpp:382] fc6 -> fc6
I0522 10:13:15.577294 19861 net.cpp:124] Setting up fc6
I0522 10:13:15.577338 19861 net.cpp:131] Top shape: 256 4096 (1048576)
I0522 10:13:15.577340 19861 net.cpp:139] Memory required for data: 1382220800
I0522 10:13:15.577353 19861 layer_factory.hpp:77] Creating layer relu6
I0522 10:13:15.577364 19861 net.cpp:86] Creating Layer relu6
I0522 10:13:15.577368 19861 net.cpp:408] relu6 <- fc6
I0522 10:13:15.577374 19861 net.cpp:369] relu6 -> fc6 (in-place)
I0522 10:13:15.577822 19861 net.cpp:124] Setting up relu6
I0522 10:13:15.577836 19861 net.cpp:131] Top shape: 256 4096 (1048576)
I0522 10:13:15.577837 19861 net.cpp:139] Memory required for data: 1386415104
I0522 10:13:15.577839 19861 layer_factory.hpp:77] Creating layer drop6
I0522 10:13:15.577847 19861 net.cpp:86] Creating Layer drop6
I0522 10:13:15.577848 19861 net.cpp:408] drop6 <- fc6
I0522 10:13:15.577852 19861 net.cpp:369] drop6 -> fc6 (in-place)
I0522 10:13:15.577878 19861 net.cpp:124] Setting up drop6
I0522 10:13:15.577883 19861 net.cpp:131] Top shape: 256 4096 (1048576)
I0522 10:13:15.577885 19861 net.cpp:139] Memory required for data: 1390609408
I0522 10:13:15.577888 19861 layer_factory.hpp:77] Creating layer fc7
I0522 10:13:15.577893 19861 net.cpp:86] Creating Layer fc7
I0522 10:13:15.577895 19861 net.cpp:408] fc7 <- fc6
I0522 10:13:15.577898 19861 net.cpp:382] fc7 -> fc7
I0522 10:13:15.700171 19861 net.cpp:124] Setting up fc7
I0522 10:13:15.700214 19861 net.cpp:131] Top shape: 256 4096 (1048576)
I0522 10:13:15.700217 19861 net.cpp:139] Memory required for data: 1394803712
I0522 10:13:15.700232 19861 layer_factory.hpp:77] Creating layer relu7
I0522 10:13:15.700245 19861 net.cpp:86] Creating Layer relu7
I0522 10:13:15.700248 19861 net.cpp:408] relu7 <- fc7
I0522 10:13:15.700256 19861 net.cpp:369] relu7 -> fc7 (in-place)
I0522 10:13:15.701084 19861 net.cpp:124] Setting up relu7
I0522 10:13:15.701099 19861 net.cpp:131] Top shape: 256 4096 (1048576)
I0522 10:13:15.701102 19861 net.cpp:139] Memory required for data: 1398998016
I0522 10:13:15.701103 19861 layer_factory.hpp:77] Creating layer drop7
I0522 10:13:15.701112 19861 net.cpp:86] Creating Layer drop7
I0522 10:13:15.701113 19861 net.cpp:408] drop7 <- fc7
I0522 10:13:15.701117 19861 net.cpp:369] drop7 -> fc7 (in-place)
I0522 10:13:15.701135 19861 net.cpp:124] Setting up drop7
I0522 10:13:15.701139 19861 net.cpp:131] Top shape: 256 4096 (1048576)
I0522 10:13:15.701141 19861 net.cpp:139] Memory required for data: 1403192320
I0522 10:13:15.701143 19861 layer_factory.hpp:77] Creating layer fc8
I0522 10:13:15.701149 19861 net.cpp:86] Creating Layer fc8
I0522 10:13:15.701185 19861 net.cpp:408] fc8 <- fc7
I0522 10:13:15.701189 19861 net.cpp:382] fc8 -> fc8
I0522 10:13:15.703109 19861 net.cpp:124] Setting up fc8
I0522 10:13:15.703115 19861 net.cpp:131] Top shape: 256 43 (11008)
I0522 10:13:15.703117 19861 net.cpp:139] Memory required for data: 1403236352
I0522 10:13:15.703120 19861 layer_factory.hpp:77] Creating layer loss
I0522 10:13:15.703125 19861 net.cpp:86] Creating Layer loss
I0522 10:13:15.703126 19861 net.cpp:408] loss <- fc8
I0522 10:13:15.703128 19861 net.cpp:408] loss <- label
I0522 10:13:15.703135 19861 net.cpp:382] loss -> loss
I0522 10:13:15.703150 19861 layer_factory.hpp:77] Creating layer loss
…
I0522 10:13:15.704015 19861 net.cpp:296] The NetState phase (1) differed from the phase (0) specified by a rule in layer data
I0522 10:13:15.704142 19861 net.cpp:53] Initializing net from parameters: 
name: "CaffeNet"
state {
  phase: TEST
}
layer {
  name: "data"
  type: "Data"
  top: "data"
  top: "label"
  include {
    phase: TEST
  }
  transform_param {
    mirror: false
    crop_size: 200
    mean_file: "./data/mean_lmdb_test/gtsrb_test_mean.binaryproto"
  }
  data_param {
    source: "./data/lmdb_test"
    batch_size: 50
    backend: LMDB
  }
}
layer {
  name: "conv1"
  type: "Convolution"
  bottom: "data"
  top: "conv1"
  param {
    lr_mult: 1
    decay_mult: 1
  }
  param {
    lr_mult: 2
    decay_mult: 0
  }
  convolution_param {
    num_output: 96
    kernel_size: 11
    stride: 4
    weight_filler {
      type: "gaussian"
      std: 0.01
    }
    bias_filler {
      type: "constant"
      value: 0
    }
  }
}
layer {
  name: "relu1"
  type: "ReLU"
  bottom: "conv1"
  top: "conv1"
}
layer {
  name: "pool1"
  type: "Pooling"
  bottom: "conv1"
  top: "pool1"
  pooling_param {
    pool: MAX
    kernel_size: 3
    stride: 2
  }
}
layer {
  name: "norm1"
  type: "LRN"
  bottom: "pool1"
  top: "norm1"
  lrn_param {
    local_size: 5
    alpha: 0.0001
    beta: 0.75
  }
}
layer {
  name: "conv2"
  type: "Convolution"
  bottom: "norm1"
  top: "conv2"
  param {
    lr_mult: 1
    decay_mult: 1
  }
  param {
    lr_mult: 2
    decay_mult: 0
  }
  convolution_param {
    num_output: 256
    pad: 2
    kernel_size: 5
    group: 2
    weight_filler {
      type: "gaussian"
      std: 0.01
    }
    bias_filler {
      type: "constant"
      value: 1
    }
  }
}
layer {
  name: "relu2"
  type: "ReLU"
  bottom: "conv2"
  top: "conv2"
}
layer {
  name: "pool2"
  type: "Pooling"
  bottom: "conv2"
  top: "pool2"
  pooling_param {
    pool: MAX
    kernel_size: 3
    stride: 2
  }
}
layer {
  name: "norm2"
  type: "LRN"
  bottom: "pool2"
  top: "norm2"
  lrn_param {
    local_size: 5
    alpha: 0.0001
    beta: 0.75
  }
}
layer {
  name: "conv3"
  type: "Convolution"
  bottom: "norm2"
  top: "conv3"
  param {
    lr_mult: 1
    decay_mult: 1
  }
  param {
    lr_mult: 2
    decay_mult: 0
  }
  convolution_param {
    num_output: 384
    pad: 1
    kernel_size: 3
    weight_filler {
      type: "gaussian"
      std: 0.01
    }
    bias_filler {
      type: "constant"
      value: 0
    }
  }
}
layer {
  name: "relu3"
  type: "ReLU"
  bottom: "conv3"
  top: "conv3"
}
layer {
  name: "conv4"
  type: "Convolution"
  bottom: "conv3"
  top: "conv4"
  param {
    lr_mult: 1
    decay_mult: 1
  }
  param {
    lr_mult: 2
    decay_mult: 0
  }
  convolution_param {
    num_output: 384
    pad: 1
    kernel_size: 3
    group: 2
    weight_filler {
      type: "gaussian"
      std: 0.01
    }
    bias_filler {
      type: "constant"
      value: 1
    }
  }
}
layer {
  name: "relu4"
  type: "ReLU"
  bottom: "conv4"
  top: "conv4"
}
layer {
  name: "conv5"
  type: "Convolution"
  bottom: "conv4"
  top: "conv5"
  param {
    lr_mult: 1
    decay_mult: 1
  }
  param {
    lr_mult: 2
    decay_mult: 0
  }
  convolution_param {
    num_output: 256
    pad: 1
    kernel_size: 3
    group: 2
    weight_filler {
      type: "gaussian"
      std: 0.01
    }
    bias_filler {
      type: "constant"
      value: 1
    }
  }
}
layer {
  name: "relu5"
  type: "ReLU"
  bottom: "conv5"
  top: "conv5"
}
layer {
  name: "pool5"
  type: "Pooling"
  bottom: "conv5"
  top: "pool5"
  pooling_param {
    pool: MAX
    kernel_size: 3
    stride: 2
  }
}
layer {
  name: "fc6"
  type: "InnerProduct"
  bottom: "pool5"
  top: "fc6"
  param {
    lr_mult: 1
    decay_mult: 1
  }
  param {
    lr_mult: 2
    decay_mult: 0
  }
  inner_product_param {
    num_output: 4096
    weight_filler {
      type: "gaussian"
      std: 0.005
    }
    bias_filler {
      type: "constant"
      value: 1
    }
  }
}
layer {
  name: "relu6"
  type: "ReLU"
  bottom: "fc6"
  top: "fc6"
}
layer {
  name: "drop6"
  type: "Dropout"
  bottom: "fc6"
  top: "fc6"
  dropout_param {
    dropout_ratio: 0.5
  }
}
layer {
  name: "fc7"
  type: "InnerProduct"
  bottom: "fc6"
  top: "fc7"
  param {
    lr_mult: 1
    decay_mult: 1
  }
  param {
    lr_mult: 2
    decay_mult: 0
  }
  inner_product_param {
    num_output: 4096
    weight_filler {
      type: "gaussian"
      std: 0.005
    }
    bias_filler {
      type: "constant"
      value: 1
    }
  }
}
layer {
  name: "relu7"
  type: "ReLU"
  bottom: "fc7"
  top: "fc7"
}
layer {
  name: "drop7"
  type: "Dropout"
  bottom: "fc7"
  top: "fc7"
  dropout_param {
    dropout_ratio: 0.5
  }
}
layer {
  name: "fc8"
  type: "InnerProduct"
  bottom: "fc7"
  top: "fc8"
  param {
    lr_mult: 1
    decay_mult: 1
  }
  param {
    lr_mult: 2
    decay_mult: 0
  }
  inner_product_param {
    num_output: 43
    weight_filler {
      type: "gaussian"
      std: 0.01
    }
    bias_filler {
      type: "constant"
      value: 0
    }
  }
}
layer {
  name: "accuracy"
  type: "Accuracy"
  bottom: "fc8"
  bottom: "label"
  top: "accuracy"
  include {
    phase: TEST
  }
}
layer {
  name: "loss"
  type: "SoftmaxWithLoss"
  bottom: "fc8"
  bottom: "label"
  top: "loss"
}
I0522 10:13:15.704228 19861 layer_factory.hpp:77] Creating layer data
I0522 10:13:15.725585 19861 db_lmdb.cpp:35] Opened lmdb ./data/lmdb_test
I0522 10:13:15.736191 19861 net.cpp:86] Creating Layer data
I0522 10:13:15.736198 19861 net.cpp:382] data -> data
I0522 10:13:15.736204 19861 net.cpp:382] data -> label
I0522 10:13:15.736212 19861 data_transformer.cpp:25] Loading mean file from: ./data/mean_lmdb_test/gtsrb_test_mean.binaryproto
I0522 10:13:15.742934 19861 data_layer.cpp:45] output data size: 50,3,200,200
I0522 10:13:15.809114 19861 net.cpp:124] Setting up data
I0522 10:13:15.809149 19861 net.cpp:131] Top shape: 50 3 200 200 (6000000)
I0522 10:13:15.809152 19861 net.cpp:131] Top shape: 50 (50)
I0522 10:13:15.809154 19861 net.cpp:139] Memory required for data: 24000200
I0522 10:13:15.809161 19861 layer_factory.hpp:77] Creating layer label_data_1_split
I0522 10:13:15.809175 19861 net.cpp:86] Creating Layer label_data_1_split
I0522 10:13:15.809178 19861 net.cpp:408] label_data_1_split <- label
I0522 10:13:15.809185 19861 net.cpp:382] label_data_1_split -> label_data_1_split_0
I0522 10:13:15.809195 19861 net.cpp:382] label_data_1_split -> label_data_1_split_1
I0522 10:13:15.809413 19861 net.cpp:124] Setting up label_data_1_split
I0522 10:13:15.809419 19861 net.cpp:131] Top shape: 50 (50)
I0522 10:13:15.809422 19861 net.cpp:131] Top shape: 50 (50)
I0522 10:13:15.809424 19861 net.cpp:139] Memory required for data: 24000600
I0522 10:13:15.809427 19861 layer_factory.hpp:77] Creating layer conv1
I0522 10:13:15.809442 19861 net.cpp:86] Creating Layer conv1
I0522 10:13:15.809442 19861 net.cpp:408] conv1 <- data
I0522 10:13:15.809449 19861 net.cpp:382] conv1 -> conv1
I0522 10:13:15.813156 19861 net.cpp:124] Setting up conv1
I0522 10:13:15.813167 19861 net.cpp:131] Top shape: 50 96 48 48 (11059200)
I0522 10:13:15.813169 19861 net.cpp:139] Memory required for data: 68237400
I0522 10:13:15.813177 19861 layer_factory.hpp:77] Creating layer relu1
I0522 10:13:15.813181 19861 net.cpp:86] Creating Layer relu1
I0522 10:13:15.813184 19861 net.cpp:408] relu1 <- conv1
I0522 10:13:15.813186 19861 net.cpp:369] relu1 -> conv1 (in-place)
I0522 10:13:15.813504 19861 net.cpp:124] Setting up relu1
I0522 10:13:15.813513 19861 net.cpp:131] Top shape: 50 96 48 48 (11059200)
I0522 10:13:15.813514 19861 net.cpp:139] Memory required for data: 112474200
I0522 10:13:15.813516 19861 layer_factory.hpp:77] Creating layer pool1
I0522 10:13:15.813521 19861 net.cpp:86] Creating Layer pool1
I0522 10:13:15.813524 19861 net.cpp:408] pool1 <- conv1
I0522 10:13:15.813526 19861 net.cpp:382] pool1 -> pool1
I0522 10:13:15.813552 19861 net.cpp:124] Setting up pool1
I0522 10:13:15.813556 19861 net.cpp:131] Top shape: 50 96 24 24 (2764800)
I0522 10:13:15.813558 19861 net.cpp:139] Memory required for data: 123533400
I0522 10:13:15.813560 19861 layer_factory.hpp:77] Creating layer norm1
I0522 10:13:15.813565 19861 net.cpp:86] Creating Layer norm1
I0522 10:13:15.813567 19861 net.cpp:408] norm1 <- pool1
I0522 10:13:15.813570 19861 net.cpp:382] norm1 -> norm1
I0522 10:13:15.813889 19861 net.cpp:124] Setting up norm1
I0522 10:13:15.813896 19861 net.cpp:131] Top shape: 50 96 24 24 (2764800)
I0522 10:13:15.813897 19861 net.cpp:139] Memory required for data: 134592600
I0522 10:13:15.813899 19861 layer_factory.hpp:77] Creating layer conv2
I0522 10:13:15.813905 19861 net.cpp:86] Creating Layer conv2
I0522 10:13:15.813906 19861 net.cpp:408] conv2 <- norm1
I0522 10:13:15.813910 19861 net.cpp:382] conv2 -> conv2
I0522 10:13:15.820705 19861 net.cpp:124] Setting up conv2
I0522 10:13:15.820715 19861 net.cpp:131] Top shape: 50 256 24 24 (7372800)
I0522 10:13:15.820717 19861 net.cpp:139] Memory required for data: 164083800
I0522 10:13:15.820724 19861 layer_factory.hpp:77] Creating layer relu2
I0522 10:13:15.820727 19861 net.cpp:86] Creating Layer relu2
I0522 10:13:15.820729 19861 net.cpp:408] relu2 <- conv2
I0522 10:13:15.820731 19861 net.cpp:369] relu2 -> conv2 (in-place)
I0522 10:13:15.821125 19861 net.cpp:124] Setting up relu2
I0522 10:13:15.821149 19861 net.cpp:131] Top shape: 50 256 24 24 (7372800)
I0522 10:13:15.821151 19861 net.cpp:139] Memory required for data: 193575000
I0522 10:13:15.821153 19861 layer_factory.hpp:77] Creating layer pool2
I0522 10:13:15.821158 19861 net.cpp:86] Creating Layer pool2
I0522 10:13:15.821159 19861 net.cpp:408] pool2 <- conv2
I0522 10:13:15.821163 19861 net.cpp:382] pool2 -> pool2
I0522 10:13:15.821187 19861 net.cpp:124] Setting up pool2
I0522 10:13:15.821190 19861 net.cpp:131] Top shape: 50 256 12 12 (1843200)
I0522 10:13:15.821192 19861 net.cpp:139] Memory required for data: 200947800
I0522 10:13:15.821193 19861 layer_factory.hpp:77] Creating layer norm2
I0522 10:13:15.821197 19861 net.cpp:86] Creating Layer norm2
I0522 10:13:15.821198 19861 net.cpp:408] norm2 <- pool2
I0522 10:13:15.821200 19861 net.cpp:382] norm2 -> norm2
I0522 10:13:15.821409 19861 net.cpp:124] Setting up norm2
I0522 10:13:15.821414 19861 net.cpp:131] Top shape: 50 256 12 12 (1843200)
I0522 10:13:15.821416 19861 net.cpp:139] Memory required for data: 208320600
I0522 10:13:15.821418 19861 layer_factory.hpp:77] Creating layer conv3
I0522 10:13:15.821422 19861 net.cpp:86] Creating Layer conv3
I0522 10:13:15.821424 19861 net.cpp:408] conv3 <- norm2
I0522 10:13:15.821427 19861 net.cpp:382] conv3 -> conv3
I0522 10:13:15.830289 19861 net.cpp:124] Setting up conv3
I0522 10:13:15.830305 19861 net.cpp:131] Top shape: 50 384 12 12 (2764800)
I0522 10:13:15.830307 19861 net.cpp:139] Memory required for data: 219379800
I0522 10:13:15.830313 19861 layer_factory.hpp:77] Creating layer relu3
I0522 10:13:15.830318 19861 net.cpp:86] Creating Layer relu3
I0522 10:13:15.830320 19861 net.cpp:408] relu3 <- conv3
I0522 10:13:15.830324 19861 net.cpp:369] relu3 -> conv3 (in-place)
I0522 10:13:15.830746 19861 net.cpp:124] Setting up relu3
I0522 10:13:15.830754 19861 net.cpp:131] Top shape: 50 384 12 12 (2764800)
I0522 10:13:15.830755 19861 net.cpp:139] Memory required for data: 230439000
I0522 10:13:15.830757 19861 layer_factory.hpp:77] Creating layer conv4
I0522 10:13:15.830763 19861 net.cpp:86] Creating Layer conv4
I0522 10:13:15.830765 19861 net.cpp:408] conv4 <- conv3
I0522 10:13:15.830768 19861 net.cpp:382] conv4 -> conv4
I0522 10:13:15.838115 19861 net.cpp:124] Setting up conv4
I0522 10:13:15.838127 19861 net.cpp:131] Top shape: 50 384 12 12 (2764800)
I0522 10:13:15.838129 19861 net.cpp:139] Memory required for data: 241498200
I0522 10:13:15.838133 19861 layer_factory.hpp:77] Creating layer relu4
I0522 10:13:15.838138 19861 net.cpp:86] Creating Layer relu4
I0522 10:13:15.838140 19861 net.cpp:408] relu4 <- conv4
I0522 10:13:15.838143 19861 net.cpp:369] relu4 -> conv4 (in-place)
I0522 10:13:15.838605 19861 net.cpp:124] Setting up relu4
I0522 10:13:15.838614 19861 net.cpp:131] Top shape: 50 384 12 12 (2764800)
I0522 10:13:15.838616 19861 net.cpp:139] Memory required for data: 252557400
I0522 10:13:15.838618 19861 layer_factory.hpp:77] Creating layer conv5
I0522 10:13:15.838626 19861 net.cpp:86] Creating Layer conv5
I0522 10:13:15.838627 19861 net.cpp:408] conv5 <- conv4
I0522 10:13:15.838631 19861 net.cpp:382] conv5 -> conv5
I0522 10:13:15.850780 19861 net.cpp:124] Setting up conv5
I0522 10:13:15.850795 19861 net.cpp:131] Top shape: 50 256 12 12 (1843200)
I0522 10:13:15.850796 19861 net.cpp:139] Memory required for data: 259930200
I0522 10:13:15.850805 19861 layer_factory.hpp:77] Creating layer relu5
I0522 10:13:15.850811 19861 net.cpp:86] Creating Layer relu5
I0522 10:13:15.850813 19861 net.cpp:408] relu5 <- conv5
I0522 10:13:15.850816 19861 net.cpp:369] relu5 -> conv5 (in-place)
I0522 10:13:15.851218 19861 net.cpp:124] Setting up relu5
I0522 10:13:15.851227 19861 net.cpp:131] Top shape: 50 256 12 12 (1843200)
I0522 10:13:15.851227 19861 net.cpp:139] Memory required for data: 267303000
I0522 10:13:15.851229 19861 layer_factory.hpp:77] Creating layer pool5
I0522 10:13:15.851236 19861 net.cpp:86] Creating Layer pool5
I0522 10:13:15.851238 19861 net.cpp:408] pool5 <- conv5
I0522 10:13:15.851241 19861 net.cpp:382] pool5 -> pool5
I0522 10:13:15.851269 19861 net.cpp:124] Setting up pool5
I0522 10:13:15.851290 19861 net.cpp:131] Top shape: 50 256 6 6 (460800)
I0522 10:13:15.851292 19861 net.cpp:139] Memory required for data: 269146200
I0522 10:13:15.851294 19861 layer_factory.hpp:77] Creating layer fc6
I0522 10:13:15.851300 19861 net.cpp:86] Creating Layer fc6
I0522 10:13:15.851300 19861 net.cpp:408] fc6 <- pool5
I0522 10:13:15.851303 19861 net.cpp:382] fc6 -> fc6
I0522 10:13:16.188848 19861 net.cpp:124] Setting up fc6
I0522 10:13:16.188895 19861 net.cpp:131] Top shape: 50 4096 (204800)
I0522 10:13:16.188897 19861 net.cpp:139] Memory required for data: 269965400
I0522 10:13:16.188912 19861 layer_factory.hpp:77] Creating layer relu6
I0522 10:13:16.188925 19861 net.cpp:86] Creating Layer relu6
I0522 10:13:16.188930 19861 net.cpp:408] relu6 <- fc6
I0522 10:13:16.188937 19861 net.cpp:369] relu6 -> fc6 (in-place)
I0522 10:13:16.189972 19861 net.cpp:124] Setting up relu6
I0522 10:13:16.189986 19861 net.cpp:131] Top shape: 50 4096 (204800)
I0522 10:13:16.189988 19861 net.cpp:139] Memory required for data: 270784600
I0522 10:13:16.189991 19861 layer_factory.hpp:77] Creating layer drop6
I0522 10:13:16.190001 19861 net.cpp:86] Creating Layer drop6
I0522 10:13:16.190001 19861 net.cpp:408] drop6 <- fc6
I0522 10:13:16.190006 19861 net.cpp:369] drop6 -> fc6 (in-place)
I0522 10:13:16.190026 19861 net.cpp:124] Setting up drop6
I0522 10:13:16.190028 19861 net.cpp:131] Top shape: 50 4096 (204800)
I0522 10:13:16.190029 19861 net.cpp:139] Memory required for data: 271603800
I0522 10:13:16.190032 19861 layer_factory.hpp:77] Creating layer fc7
I0522 10:13:16.190038 19861 net.cpp:86] Creating Layer fc7
I0522 10:13:16.190039 19861 net.cpp:408] fc7 <- fc6
I0522 10:13:16.190043 19861 net.cpp:382] fc7 -> fc7
I0522 10:13:16.331663 19861 net.cpp:124] Setting up fc7
I0522 10:13:16.331722 19861 net.cpp:131] Top shape: 50 4096 (204800)
I0522 10:13:16.331724 19861 net.cpp:139] Memory required for data: 272423000
I0522 10:13:16.331738 19861 layer_factory.hpp:77] Creating layer relu7
I0522 10:13:16.331758 19861 net.cpp:86] Creating Layer relu7
I0522 10:13:16.331761 19861 net.cpp:408] relu7 <- fc7
I0522 10:13:16.331770 19861 net.cpp:369] relu7 -> fc7 (in-place)
I0522 10:13:16.332387 19861 net.cpp:124] Setting up relu7
I0522 10:13:16.332403 19861 net.cpp:131] Top shape: 50 4096 (204800)
I0522 10:13:16.332406 19861 net.cpp:139] Memory required for data: 273242200
I0522 10:13:16.332407 19861 layer_factory.hpp:77] Creating layer drop7
I0522 10:13:16.332415 19861 net.cpp:86] Creating Layer drop7
I0522 10:13:16.332417 19861 net.cpp:408] drop7 <- fc7
I0522 10:13:16.332422 19861 net.cpp:369] drop7 -> fc7 (in-place)
I0522 10:13:16.332442 19861 net.cpp:124] Setting up drop7
I0522 10:13:16.332444 19861 net.cpp:131] Top shape: 50 4096 (204800)
I0522 10:13:16.332446 19861 net.cpp:139] Memory required for data: 274061400
I0522 10:13:16.332448 19861 layer_factory.hpp:77] Creating layer fc8
I0522 10:13:16.332455 19861 net.cpp:86] Creating Layer fc8
I0522 10:13:16.332458 19861 net.cpp:408] fc8 <- fc7
I0522 10:13:16.332460 19861 net.cpp:382] fc8 -> fc8
I0522 10:13:16.333622 19861 net.cpp:124] Setting up fc8
I0522 10:13:16.333631 19861 net.cpp:131] Top shape: 50 43 (2150)
I0522 10:13:16.333632 19861 net.cpp:139] Memory required for data: 274070000
I0522 10:13:16.333636 19861 layer_factory.hpp:77] Creating layer fc8_fc8_0_split
I0522 10:13:16.333642 19861 net.cpp:86] Creating Layer fc8_fc8_0_split
I0522 10:13:16.333642 19861 net.cpp:408] fc8_fc8_0_split <- fc8
I0522 10:13:16.333647 19861 net.cpp:382] fc8_fc8_0_split -> fc8_fc8_0_split_0
I0522 10:13:16.333649 19861 net.cpp:382] fc8_fc8_0_split -> fc8_fc8_0_split_1
I0522 10:13:16.333669 19861 net.cpp:124] Setting up fc8_fc8_0_split
I0522 10:13:16.333673 19861 net.cpp:131] Top shape: 50 43 (2150)
I0522 10:13:16.333675 19861 net.cpp:131] Top shape: 50 43 (2150)
I0522 10:13:16.333676 19861 net.cpp:139] Memory required for data: 274087200
I0522 10:13:16.333678 19861 layer_factory.hpp:77] Creating layer accuracy
I0522 10:13:16.333683 19861 net.cpp:86] Creating Layer accuracy
I0522 10:13:16.333714 19861 net.cpp:408] accuracy <- fc8_fc8_0_split_0
I0522 10:13:16.333715 19861 net.cpp:408] accuracy <- label_data_1_split_0
I0522 10:13:16.333719 19861 net.cpp:382] accuracy -> accuracy
…
