…
I0521 18:16:00.871397 15401 net.cpp:296] The NetState phase (0) differed from the phase (1) specified by a rule in layer accuracy
I0521 18:16:00.871501 15401 net.cpp:53] Initializing net from parameters: 
name: "ShwangNet"
state {
  phase: TRAIN
  level: 0
  stage: ""
}
layer {
  name: "data"
  type: "Data"
  top: "data"
  top: "label"
  include {
    phase: TRAIN
  }
  transform_param {
    mirror: true
    crop_size: 200
    mean_file: "./data/mean_lmdb_train/gtsrb_train_mean.binaryproto"
  }
  data_param {
    source: "./data/lmdb_train"
    batch_size: 256
    backend: LMDB
  }
}
layer {
  name: "conv1"
  type: "Convolution"
  bottom: "data"
  top: "conv1"
  param {
    lr_mult: 1
    decay_mult: 1
  }
  param {
    lr_mult: 2
    decay_mult: 0
  }
  convolution_param {
    num_output: 96
    kernel_size: 11
    stride: 4
    weight_filler {
      type: "gaussian"
      std: 0.01
    }
    bias_filler {
      type: "constant"
      value: 0
    }
  }
}
layer {
  name: "bn1"
  type: "BatchNorm"
  bottom: "conv1"
  top: "bn1"
  param {
    lr_mult: 0
    decay_mult: 0
  }
  param {
    lr_mult: 0
    decay_mult: 0
  }
  param {
    lr_mult: 0
    decay_mult: 0
  }
}
layer {
  name: "relu1"
  type: "ReLU"
  bottom: "bn1"
  top: "bn1"
}
layer {
  name: "pool1"
  type: "Pooling"
  bottom: "bn1"
  top: "pool1"
  pooling_param {
    pool: MAX
    kernel_size: 3
    stride: 2
  }
}
layer {
  name: "conv2"
  type: "Convolution"
  bottom: "pool1"
  top: "conv2"
  param {
    lr_mult: 1
    decay_mult: 1
  }
  param {
    lr_mult: 2
    decay_mult: 0
  }
  convolution_param {
    num_output: 256
    pad: 2
    kernel_size: 5
    group: 2
    weight_filler {
      type: "gaussian"
      std: 0.01
    }
    bias_filler {
      type: "constant"
      value: 1
    }
  }
}
layer {
  name: "bn2"
  type: "BatchNorm"
  bottom: "conv2"
  top: "bn2"
  param {
    lr_mult: 0
    decay_mult: 0
  }
  param {
    lr_mult: 0
    decay_mult: 0
  }
  param {
    lr_mult: 0
    decay_mult: 0
  }
}
layer {
  name: "relu2"
  type: "ReLU"
  bottom: "bn2"
  top: "bn2"
}
layer {
  name: "pool2"
  type: "Pooling"
  bottom: "bn2"
  top: "pool2"
  pooling_param {
    pool: MAX
    kernel_size: 3
    stride: 2
  }
}
layer {
  name: "conv3"
  type: "Convolution"
  bottom: "pool2"
  top: "conv3"
  param {
    lr_mult: 1
    decay_mult: 1
  }
  param {
    lr_mult: 2
    decay_mult: 0
  }
  convolution_param {
    num_output: 384
    pad: 1
    kernel_size: 3
    weight_filler {
      type: "gaussian"
      std: 0.01
    }
    bias_filler {
      type: "constant"
      value: 0
    }
  }
}
layer {
  name: "relu3"
  type: "ReLU"
  bottom: "conv3"
  top: "conv3"
}
layer {
  name: "conv4"
  type: "Convolution"
  bottom: "conv3"
  top: "conv4"
  param {
    lr_mult: 1
    decay_mult: 1
  }
  param {
    lr_mult: 2
    decay_mult: 0
  }
  convolution_param {
    num_output: 384
    pad: 1
    kernel_size: 3
    group: 2
    weight_filler {
      type: "gaussian"
      std: 0.01
    }
    bias_filler {
      type: "constant"
      value: 1
    }
  }
}
layer {
  name: "relu4"
  type: "ReLU"
  bottom: "conv4"
  top: "conv4"
}
layer {
  name: "conv5"
  type: "Convolution"
  bottom: "conv4"
  top: "conv5"
  param {
    lr_mult: 1
    decay_mult: 1
  }
  param {
    lr_mult: 2
    decay_mult: 0
  }
  convolution_param {
    num_output: 256
    pad: 1
    kernel_size: 3
    group: 2
    weight_filler {
      type: "gaussian"
      std: 0.01
    }
    bias_filler {
      type: "constant"
      value: 1
    }
  }
}
layer {
  name: "relu5"
  type: "ReLU"
  bottom: "conv5"
  top: "conv5"
}
layer {
  name: "pool5"
  type: "Pooling"
  bottom: "conv5"
  top: "pool5"
  pooling_param {
    pool: MAX
    kernel_size: 3
    stride: 2
  }
}
layer {
  name: "fc6"
  type: "InnerProduct"
  bottom: "pool5"
  top: "fc6"
  param {
    lr_mult: 1
    decay_mult: 1
  }
  param {
    lr_mult: 2
    decay_mult: 0
  }
  inner_product_param {
    num_output: 4096
    weight_filler {
      type: "gaussian"
      std: 0.005
    }
    bias_filler {
      type: "constant"
      value: 1
    }
  }
}
layer {
  name: "relu6"
  type: "ReLU"
  bottom: "fc6"
  top: "fc6"
}
layer {
  name: "drop6"
  type: "Dropout"
  bottom: "fc6"
  top: "fc6"
  dropout_param {
    dropout_ratio: 0.2
  }
}
layer {
  name: "fc7"
  type: "InnerProduct"
  bottom: "fc6"
  top: "fc7"
  param {
    lr_mult: 1
    decay_mult: 1
  }
  param {
    lr_mult: 2
    decay_mult: 0
  }
  inner_product_param {
    num_output: 4096
    weight_filler {
      type: "gaussian"
      std: 0.005
    }
    bias_filler {
      type: "constant"
      value: 1
    }
  }
}
layer {
  name: "relu7"
  type: "ReLU"
  bottom: "fc7"
  top: "fc7"
}
layer {
  name: "drop7"
  type: "Dropout"
  bottom: "fc7"
  top: "fc7"
  dropout_param {
    dropout_ratio: 0.2
  }
}
layer {
  name: "fc8"
  type: "InnerProduct"
  bottom: "fc7"
  top: "fc8"
  param {
    lr_mult: 1
    decay_mult: 1
  }
  param {
    lr_mult: 2
    decay_mult: 0
  }
  inner_product_param {
    num_output: 43
    weight_filler {
      type: "gaussian"
      std: 0.01
    }
    bias_filler {
      type: "constant"
      value: 0
    }
  }
}
layer {
  name: "loss"
  type: "SoftmaxWithLoss"
  bottom: "fc8"
  bottom: "label"
  top: "loss"
}
I0521 18:16:00.871575 15401 layer_factory.hpp:77] Creating layer data
I0521 18:16:00.871995 15401 db_lmdb.cpp:35] Opened lmdb ./data/lmdb_train
I0521 18:16:00.872030 15401 net.cpp:86] Creating Layer data
I0521 18:16:00.872035 15401 net.cpp:382] data -> data
I0521 18:16:00.872056 15401 net.cpp:382] data -> label
I0521 18:16:00.872071 15401 data_transformer.cpp:25] Loading mean file from: ./data/mean_lmdb_train/gtsrb_train_mean.binaryproto
I0521 18:16:00.892171 15401 data_layer.cpp:45] output data size: 256,3,200,200
I0521 18:16:01.134164 15401 net.cpp:124] Setting up data
I0521 18:16:01.134198 15401 net.cpp:131] Top shape: 256 3 200 200 (30720000)
I0521 18:16:01.134202 15401 net.cpp:131] Top shape: 256 (256)
I0521 18:16:01.134203 15401 net.cpp:139] Memory required for data: 122881024
I0521 18:16:01.134213 15401 layer_factory.hpp:77] Creating layer conv1
I0521 18:16:01.134238 15401 net.cpp:86] Creating Layer conv1
I0521 18:16:01.134244 15401 net.cpp:408] conv1 <- data
I0521 18:16:01.134258 15401 net.cpp:382] conv1 -> conv1
I0521 18:16:02.707269 15401 net.cpp:124] Setting up conv1
I0521 18:16:02.707299 15401 net.cpp:131] Top shape: 256 96 48 48 (56623104)
I0521 18:16:02.707303 15401 net.cpp:139] Memory required for data: 349373440
I0521 18:16:02.707320 15401 layer_factory.hpp:77] Creating layer bn1
I0521 18:16:02.707330 15401 net.cpp:86] Creating Layer bn1
I0521 18:16:02.707332 15401 net.cpp:408] bn1 <- conv1
I0521 18:16:02.707336 15401 net.cpp:382] bn1 -> bn1
I0521 18:16:02.707450 15401 net.cpp:124] Setting up bn1
I0521 18:16:02.707456 15401 net.cpp:131] Top shape: 256 96 48 48 (56623104)
I0521 18:16:02.707458 15401 net.cpp:139] Memory required for data: 575865856
I0521 18:16:02.707464 15401 layer_factory.hpp:77] Creating layer relu1
I0521 18:16:02.707468 15401 net.cpp:86] Creating Layer relu1
I0521 18:16:02.707470 15401 net.cpp:408] relu1 <- bn1
I0521 18:16:02.707494 15401 net.cpp:369] relu1 -> bn1 (in-place)
I0521 18:16:02.707988 15401 net.cpp:124] Setting up relu1
I0521 18:16:02.707995 15401 net.cpp:131] Top shape: 256 96 48 48 (56623104)
I0521 18:16:02.707998 15401 net.cpp:139] Memory required for data: 802358272
I0521 18:16:02.707999 15401 layer_factory.hpp:77] Creating layer pool1
I0521 18:16:02.708004 15401 net.cpp:86] Creating Layer pool1
I0521 18:16:02.708006 15401 net.cpp:408] pool1 <- bn1
I0521 18:16:02.708009 15401 net.cpp:382] pool1 -> pool1
I0521 18:16:02.708043 15401 net.cpp:124] Setting up pool1
I0521 18:16:02.708047 15401 net.cpp:131] Top shape: 256 96 24 24 (14155776)
I0521 18:16:02.708050 15401 net.cpp:139] Memory required for data: 858981376
I0521 18:16:02.708050 15401 layer_factory.hpp:77] Creating layer conv2
I0521 18:16:02.708058 15401 net.cpp:86] Creating Layer conv2
I0521 18:16:02.708060 15401 net.cpp:408] conv2 <- pool1
I0521 18:16:02.708063 15401 net.cpp:382] conv2 -> conv2
I0521 18:16:02.713937 15401 net.cpp:124] Setting up conv2
I0521 18:16:02.713948 15401 net.cpp:131] Top shape: 256 256 24 24 (37748736)
I0521 18:16:02.713950 15401 net.cpp:139] Memory required for data: 1009976320
I0521 18:16:02.713954 15401 layer_factory.hpp:77] Creating layer bn2
I0521 18:16:02.713958 15401 net.cpp:86] Creating Layer bn2
I0521 18:16:02.713960 15401 net.cpp:408] bn2 <- conv2
I0521 18:16:02.713964 15401 net.cpp:382] bn2 -> bn2
I0521 18:16:02.714068 15401 net.cpp:124] Setting up bn2
I0521 18:16:02.714073 15401 net.cpp:131] Top shape: 256 256 24 24 (37748736)
I0521 18:16:02.714074 15401 net.cpp:139] Memory required for data: 1160971264
I0521 18:16:02.714079 15401 layer_factory.hpp:77] Creating layer relu2
I0521 18:16:02.714083 15401 net.cpp:86] Creating Layer relu2
I0521 18:16:02.714084 15401 net.cpp:408] relu2 <- bn2
I0521 18:16:02.714087 15401 net.cpp:369] relu2 -> bn2 (in-place)
I0521 18:16:02.714488 15401 net.cpp:124] Setting up relu2
I0521 18:16:02.714495 15401 net.cpp:131] Top shape: 256 256 24 24 (37748736)
I0521 18:16:02.714496 15401 net.cpp:139] Memory required for data: 1311966208
I0521 18:16:02.714498 15401 layer_factory.hpp:77] Creating layer pool2
I0521 18:16:02.714504 15401 net.cpp:86] Creating Layer pool2
I0521 18:16:02.714505 15401 net.cpp:408] pool2 <- bn2
I0521 18:16:02.714507 15401 net.cpp:382] pool2 -> pool2
I0521 18:16:02.714529 15401 net.cpp:124] Setting up pool2
I0521 18:16:02.714531 15401 net.cpp:131] Top shape: 256 256 12 12 (9437184)
I0521 18:16:02.714534 15401 net.cpp:139] Memory required for data: 1349714944
I0521 18:16:02.714534 15401 layer_factory.hpp:77] Creating layer conv3
I0521 18:16:02.714540 15401 net.cpp:86] Creating Layer conv3
I0521 18:16:02.714541 15401 net.cpp:408] conv3 <- pool2
I0521 18:16:02.714545 15401 net.cpp:382] conv3 -> conv3
I0521 18:16:02.721778 15401 net.cpp:124] Setting up conv3
I0521 18:16:02.721788 15401 net.cpp:131] Top shape: 256 384 12 12 (14155776)
I0521 18:16:02.721791 15401 net.cpp:139] Memory required for data: 1406338048
I0521 18:16:02.721793 15401 layer_factory.hpp:77] Creating layer relu3
I0521 18:16:02.721796 15401 net.cpp:86] Creating Layer relu3
I0521 18:16:02.721798 15401 net.cpp:408] relu3 <- conv3
I0521 18:16:02.721801 15401 net.cpp:369] relu3 -> conv3 (in-place)
I0521 18:16:02.722208 15401 net.cpp:124] Setting up relu3
I0521 18:16:02.722214 15401 net.cpp:131] Top shape: 256 384 12 12 (14155776)
I0521 18:16:02.722216 15401 net.cpp:139] Memory required for data: 1462961152
I0521 18:16:02.722218 15401 layer_factory.hpp:77] Creating layer conv4
I0521 18:16:02.722224 15401 net.cpp:86] Creating Layer conv4
I0521 18:16:02.722225 15401 net.cpp:408] conv4 <- conv3
I0521 18:16:02.722229 15401 net.cpp:382] conv4 -> conv4
I0521 18:16:02.732115 15401 net.cpp:124] Setting up conv4
I0521 18:16:02.732128 15401 net.cpp:131] Top shape: 256 384 12 12 (14155776)
I0521 18:16:02.732131 15401 net.cpp:139] Memory required for data: 1519584256
I0521 18:16:02.732136 15401 layer_factory.hpp:77] Creating layer relu4
I0521 18:16:02.732138 15401 net.cpp:86] Creating Layer relu4
I0521 18:16:02.732141 15401 net.cpp:408] relu4 <- conv4
I0521 18:16:02.732161 15401 net.cpp:369] relu4 -> conv4 (in-place)
I0521 18:16:02.732581 15401 net.cpp:124] Setting up relu4
I0521 18:16:02.732589 15401 net.cpp:131] Top shape: 256 384 12 12 (14155776)
I0521 18:16:02.732589 15401 net.cpp:139] Memory required for data: 1576207360
I0521 18:16:02.732591 15401 layer_factory.hpp:77] Creating layer conv5
I0521 18:16:02.732597 15401 net.cpp:86] Creating Layer conv5
I0521 18:16:02.732599 15401 net.cpp:408] conv5 <- conv4
I0521 18:16:02.732602 15401 net.cpp:382] conv5 -> conv5
I0521 18:16:02.738162 15401 net.cpp:124] Setting up conv5
I0521 18:16:02.738178 15401 net.cpp:131] Top shape: 256 256 12 12 (9437184)
I0521 18:16:02.738179 15401 net.cpp:139] Memory required for data: 1613956096
I0521 18:16:02.738185 15401 layer_factory.hpp:77] Creating layer relu5
I0521 18:16:02.738190 15401 net.cpp:86] Creating Layer relu5
I0521 18:16:02.738193 15401 net.cpp:408] relu5 <- conv5
I0521 18:16:02.738196 15401 net.cpp:369] relu5 -> conv5 (in-place)
I0521 18:16:02.738653 15401 net.cpp:124] Setting up relu5
I0521 18:16:02.738663 15401 net.cpp:131] Top shape: 256 256 12 12 (9437184)
I0521 18:16:02.738665 15401 net.cpp:139] Memory required for data: 1651704832
I0521 18:16:02.738667 15401 layer_factory.hpp:77] Creating layer pool5
I0521 18:16:02.738675 15401 net.cpp:86] Creating Layer pool5
I0521 18:16:02.738678 15401 net.cpp:408] pool5 <- conv5
I0521 18:16:02.738683 15401 net.cpp:382] pool5 -> pool5
I0521 18:16:02.738713 15401 net.cpp:124] Setting up pool5
I0521 18:16:02.738718 15401 net.cpp:131] Top shape: 256 256 6 6 (2359296)
I0521 18:16:02.738721 15401 net.cpp:139] Memory required for data: 1661142016
I0521 18:16:02.738723 15401 layer_factory.hpp:77] Creating layer fc6
I0521 18:16:02.738732 15401 net.cpp:86] Creating Layer fc6
I0521 18:16:02.738734 15401 net.cpp:408] fc6 <- pool5
I0521 18:16:02.738739 15401 net.cpp:382] fc6 -> fc6
I0521 18:16:03.002061 15401 net.cpp:124] Setting up fc6
I0521 18:16:03.002100 15401 net.cpp:131] Top shape: 256 4096 (1048576)
I0521 18:16:03.002102 15401 net.cpp:139] Memory required for data: 1665336320
I0521 18:16:03.002120 15401 layer_factory.hpp:77] Creating layer relu6
I0521 18:16:03.002131 15401 net.cpp:86] Creating Layer relu6
I0521 18:16:03.002135 15401 net.cpp:408] relu6 <- fc6
I0521 18:16:03.002140 15401 net.cpp:369] relu6 -> fc6 (in-place)
I0521 18:16:03.005028 15401 net.cpp:124] Setting up relu6
I0521 18:16:03.005040 15401 net.cpp:131] Top shape: 256 4096 (1048576)
I0521 18:16:03.005043 15401 net.cpp:139] Memory required for data: 1669530624
I0521 18:16:03.005045 15401 layer_factory.hpp:77] Creating layer drop6
I0521 18:16:03.005053 15401 net.cpp:86] Creating Layer drop6
I0521 18:16:03.005055 15401 net.cpp:408] drop6 <- fc6
I0521 18:16:03.005059 15401 net.cpp:369] drop6 -> fc6 (in-place)
I0521 18:16:03.005084 15401 net.cpp:124] Setting up drop6
I0521 18:16:03.005089 15401 net.cpp:131] Top shape: 256 4096 (1048576)
I0521 18:16:03.005090 15401 net.cpp:139] Memory required for data: 1673724928
I0521 18:16:03.005092 15401 layer_factory.hpp:77] Creating layer fc7
I0521 18:16:03.005098 15401 net.cpp:86] Creating Layer fc7
I0521 18:16:03.005100 15401 net.cpp:408] fc7 <- fc6
I0521 18:16:03.005105 15401 net.cpp:382] fc7 -> fc7
I0521 18:16:03.123225 15401 net.cpp:124] Setting up fc7
I0521 18:16:03.123265 15401 net.cpp:131] Top shape: 256 4096 (1048576)
I0521 18:16:03.123266 15401 net.cpp:139] Memory required for data: 1677919232
I0521 18:16:03.123278 15401 layer_factory.hpp:77] Creating layer relu7
I0521 18:16:03.123288 15401 net.cpp:86] Creating Layer relu7
I0521 18:16:03.123292 15401 net.cpp:408] relu7 <- fc7
I0521 18:16:03.123298 15401 net.cpp:369] relu7 -> fc7 (in-place)
I0521 18:16:03.124140 15401 net.cpp:124] Setting up relu7
I0521 18:16:03.124152 15401 net.cpp:131] Top shape: 256 4096 (1048576)
I0521 18:16:03.124155 15401 net.cpp:139] Memory required for data: 1682113536
I0521 18:16:03.124157 15401 layer_factory.hpp:77] Creating layer drop7
I0521 18:16:03.124164 15401 net.cpp:86] Creating Layer drop7
I0521 18:16:03.124167 15401 net.cpp:408] drop7 <- fc7
I0521 18:16:03.124194 15401 net.cpp:369] drop7 -> fc7 (in-place)
I0521 18:16:03.124217 15401 net.cpp:124] Setting up drop7
I0521 18:16:03.124222 15401 net.cpp:131] Top shape: 256 4096 (1048576)
I0521 18:16:03.124223 15401 net.cpp:139] Memory required for data: 1686307840
I0521 18:16:03.124225 15401 layer_factory.hpp:77] Creating layer fc8
I0521 18:16:03.124233 15401 net.cpp:86] Creating Layer fc8
I0521 18:16:03.124235 15401 net.cpp:408] fc8 <- fc7
I0521 18:16:03.124240 15401 net.cpp:382] fc8 -> fc8
I0521 18:16:03.126250 15401 net.cpp:124] Setting up fc8
I0521 18:16:03.126260 15401 net.cpp:131] Top shape: 256 43 (11008)
I0521 18:16:03.126261 15401 net.cpp:139] Memory required for data: 1686351872
I0521 18:16:03.126266 15401 layer_factory.hpp:77] Creating layer loss
I0521 18:16:03.126271 15401 net.cpp:86] Creating Layer loss
I0521 18:16:03.126273 15401 net.cpp:408] loss <- fc8
I0521 18:16:03.126276 15401 net.cpp:408] loss <- label
I0521 18:16:03.126283 15401 net.cpp:382] loss -> loss
I0521 18:16:03.126298 15401 layer_factory.hpp:77] Creating layer loss
…
I0521 18:16:03.127085 15401 net.cpp:296] The NetState phase (1) differed from the phase (0) specified by a rule in layer data
I0521 18:16:03.127214 15401 net.cpp:53] Initializing net from parameters: 
name: "ShwangNet"
state {
  phase: TEST
}
layer {
  name: "data"
  type: "Data"
  top: "data"
  top: "label"
  include {
    phase: TEST
  }
  transform_param {
    mirror: false
    crop_size: 200
    mean_file: "./data/mean_lmdb_test/gtsrb_test_mean.binaryproto"
  }
  data_param {
    source: "./data/lmdb_test"
    batch_size: 50
    backend: LMDB
  }
}
layer {
  name: "conv1"
  type: "Convolution"
  bottom: "data"
  top: "conv1"
  param {
    lr_mult: 1
    decay_mult: 1
  }
  param {
    lr_mult: 2
    decay_mult: 0
  }
  convolution_param {
    num_output: 96
    kernel_size: 11
    stride: 4
    weight_filler {
      type: "gaussian"
      std: 0.01
    }
    bias_filler {
      type: "constant"
      value: 0
    }
  }
}
layer {
  name: "bn1"
  type: "BatchNorm"
  bottom: "conv1"
  top: "bn1"
  param {
    lr_mult: 0
    decay_mult: 0
  }
  param {
    lr_mult: 0
    decay_mult: 0
  }
  param {
    lr_mult: 0
    decay_mult: 0
  }
}
layer {
  name: "relu1"
  type: "ReLU"
  bottom: "bn1"
  top: "bn1"
}
layer {
  name: "pool1"
  type: "Pooling"
  bottom: "bn1"
  top: "pool1"
  pooling_param {
    pool: MAX
    kernel_size: 3
    stride: 2
  }
}
layer {
  name: "conv2"
  type: "Convolution"
  bottom: "pool1"
  top: "conv2"
  param {
    lr_mult: 1
    decay_mult: 1
  }
  param {
    lr_mult: 2
    decay_mult: 0
  }
  convolution_param {
    num_output: 256
    pad: 2
    kernel_size: 5
    group: 2
    weight_filler {
      type: "gaussian"
      std: 0.01
    }
    bias_filler {
      type: "constant"
      value: 1
    }
  }
}
layer {
  name: "bn2"
  type: "BatchNorm"
  bottom: "conv2"
  top: "bn2"
  param {
    lr_mult: 0
    decay_mult: 0
  }
  param {
    lr_mult: 0
    decay_mult: 0
  }
  param {
    lr_mult: 0
    decay_mult: 0
  }
}
layer {
  name: "relu2"
  type: "ReLU"
  bottom: "bn2"
  top: "bn2"
}
layer {
  name: "pool2"
  type: "Pooling"
  bottom: "bn2"
  top: "pool2"
  pooling_param {
    pool: MAX
    kernel_size: 3
    stride: 2
  }
}
layer {
  name: "conv3"
  type: "Convolution"
  bottom: "pool2"
  top: "conv3"
  param {
    lr_mult: 1
    decay_mult: 1
  }
  param {
    lr_mult: 2
    decay_mult: 0
  }
  convolution_param {
    num_output: 384
    pad: 1
    kernel_size: 3
    weight_filler {
      type: "gaussian"
      std: 0.01
    }
    bias_filler {
      type: "constant"
      value: 0
    }
  }
}
layer {
  name: "relu3"
  type: "ReLU"
  bottom: "conv3"
  top: "conv3"
}
layer {
  name: "conv4"
  type: "Convolution"
  bottom: "conv3"
  top: "conv4"
  param {
    lr_mult: 1
    decay_mult: 1
  }
  param {
    lr_mult: 2
    decay_mult: 0
  }
  convolution_param {
    num_output: 384
    pad: 1
    kernel_size: 3
    group: 2
    weight_filler {
      type: "gaussian"
      std: 0.01
    }
    bias_filler {
      type: "constant"
      value: 1
    }
  }
}
layer {
  name: "relu4"
  type: "ReLU"
  bottom: "conv4"
  top: "conv4"
}
layer {
  name: "conv5"
  type: "Convolution"
  bottom: "conv4"
  top: "conv5"
  param {
    lr_mult: 1
    decay_mult: 1
  }
  param {
    lr_mult: 2
    decay_mult: 0
  }
  convolution_param {
    num_output: 256
    pad: 1
    kernel_size: 3
    group: 2
    weight_filler {
      type: "gaussian"
      std: 0.01
    }
    bias_filler {
      type: "constant"
      value: 1
    }
  }
}
layer {
  name: "relu5"
  type: "ReLU"
  bottom: "conv5"
  top: "conv5"
}
layer {
  name: "pool5"
  type: "Pooling"
  bottom: "conv5"
  top: "pool5"
  pooling_param {
    pool: MAX
    kernel_size: 3
    stride: 2
  }
}
layer {
  name: "fc6"
  type: "InnerProduct"
  bottom: "pool5"
  top: "fc6"
  param {
    lr_mult: 1
    decay_mult: 1
  }
  param {
    lr_mult: 2
    decay_mult: 0
  }
  inner_product_param {
    num_output: 4096
    weight_filler {
      type: "gaussian"
      std: 0.005
    }
    bias_filler {
      type: "constant"
      value: 1
    }
  }
}
layer {
  name: "relu6"
  type: "ReLU"
  bottom: "fc6"
  top: "fc6"
}
layer {
  name: "drop6"
  type: "Dropout"
  bottom: "fc6"
  top: "fc6"
  dropout_param {
    dropout_ratio: 0.2
  }
}
layer {
  name: "fc7"
  type: "InnerProduct"
  bottom: "fc6"
  top: "fc7"
  param {
    lr_mult: 1
    decay_mult: 1
  }
  param {
    lr_mult: 2
    decay_mult: 0
  }
  inner_product_param {
    num_output: 4096
    weight_filler {
      type: "gaussian"
      std: 0.005
    }
    bias_filler {
      type: "constant"
      value: 1
    }
  }
}
layer {
  name: "relu7"
  type: "ReLU"
  bottom: "fc7"
  top: "fc7"
}
layer {
  name: "drop7"
  type: "Dropout"
  bottom: "fc7"
  top: "fc7"
  dropout_param {
    dropout_ratio: 0.2
  }
}
layer {
  name: "fc8"
  type: "InnerProduct"
  bottom: "fc7"
  top: "fc8"
  param {
    lr_mult: 1
    decay_mult: 1
  }
  param {
    lr_mult: 2
    decay_mult: 0
  }
  inner_product_param {
    num_output: 43
    weight_filler {
      type: "gaussian"
      std: 0.01
    }
    bias_filler {
      type: "constant"
      value: 0
    }
  }
}
layer {
  name: "accuracy"
  type: "Accuracy"
  bottom: "fc8"
  bottom: "label"
  top: "accuracy"
  include {
    phase: TEST
  }
}
layer {
  name: "loss"
  type: "SoftmaxWithLoss"
  bottom: "fc8"
  bottom: "label"
  top: "loss"
}
I0521 18:16:03.127317 15401 layer_factory.hpp:77] Creating layer data
I0521 18:16:03.127387 15401 db_lmdb.cpp:35] Opened lmdb ./data/lmdb_test
I0521 18:16:03.127406 15401 net.cpp:86] Creating Layer data
I0521 18:16:03.127411 15401 net.cpp:382] data -> data
I0521 18:16:03.127416 15401 net.cpp:382] data -> label
I0521 18:16:03.127421 15401 data_transformer.cpp:25] Loading mean file from: ./data/mean_lmdb_test/gtsrb_test_mean.binaryproto
I0521 18:16:03.128464 15401 data_layer.cpp:45] output data size: 50,3,200,200
I0521 18:16:03.183035 15401 net.cpp:124] Setting up data
I0521 18:16:03.183070 15401 net.cpp:131] Top shape: 50 3 200 200 (6000000)
I0521 18:16:03.183074 15401 net.cpp:131] Top shape: 50 (50)
I0521 18:16:03.183076 15401 net.cpp:139] Memory required for data: 24000200
I0521 18:16:03.183084 15401 layer_factory.hpp:77] Creating layer label_data_1_split
I0521 18:16:03.183100 15401 net.cpp:86] Creating Layer label_data_1_split
I0521 18:16:03.183104 15401 net.cpp:408] label_data_1_split <- label
I0521 18:16:03.183111 15401 net.cpp:382] label_data_1_split -> label_data_1_split_0
I0521 18:16:03.183120 15401 net.cpp:382] label_data_1_split -> label_data_1_split_1
I0521 18:16:03.183171 15401 net.cpp:124] Setting up label_data_1_split
I0521 18:16:03.183176 15401 net.cpp:131] Top shape: 50 (50)
I0521 18:16:03.183178 15401 net.cpp:131] Top shape: 50 (50)
I0521 18:16:03.183180 15401 net.cpp:139] Memory required for data: 24000600
I0521 18:16:03.183184 15401 layer_factory.hpp:77] Creating layer conv1
I0521 18:16:03.183197 15401 net.cpp:86] Creating Layer conv1
I0521 18:16:03.183199 15401 net.cpp:408] conv1 <- data
I0521 18:16:03.183204 15401 net.cpp:382] conv1 -> conv1
I0521 18:16:03.187875 15401 net.cpp:124] Setting up conv1
I0521 18:16:03.187887 15401 net.cpp:131] Top shape: 50 96 48 48 (11059200)
I0521 18:16:03.187889 15401 net.cpp:139] Memory required for data: 68237400
I0521 18:16:03.187901 15401 layer_factory.hpp:77] Creating layer bn1
I0521 18:16:03.187908 15401 net.cpp:86] Creating Layer bn1
I0521 18:16:03.187945 15401 net.cpp:408] bn1 <- conv1
I0521 18:16:03.187950 15401 net.cpp:382] bn1 -> bn1
I0521 18:16:03.188096 15401 net.cpp:124] Setting up bn1
I0521 18:16:03.188102 15401 net.cpp:131] Top shape: 50 96 48 48 (11059200)
I0521 18:16:03.188104 15401 net.cpp:139] Memory required for data: 112474200
I0521 18:16:03.188112 15401 layer_factory.hpp:77] Creating layer relu1
I0521 18:16:03.188122 15401 net.cpp:86] Creating Layer relu1
I0521 18:16:03.188125 15401 net.cpp:408] relu1 <- bn1
I0521 18:16:03.188129 15401 net.cpp:369] relu1 -> bn1 (in-place)
I0521 18:16:03.188695 15401 net.cpp:124] Setting up relu1
I0521 18:16:03.188705 15401 net.cpp:131] Top shape: 50 96 48 48 (11059200)
I0521 18:16:03.188709 15401 net.cpp:139] Memory required for data: 156711000
I0521 18:16:03.188711 15401 layer_factory.hpp:77] Creating layer pool1
I0521 18:16:03.188719 15401 net.cpp:86] Creating Layer pool1
I0521 18:16:03.188721 15401 net.cpp:408] pool1 <- bn1
I0521 18:16:03.188728 15401 net.cpp:382] pool1 -> pool1
I0521 18:16:03.188766 15401 net.cpp:124] Setting up pool1
I0521 18:16:03.188773 15401 net.cpp:131] Top shape: 50 96 24 24 (2764800)
I0521 18:16:03.188776 15401 net.cpp:139] Memory required for data: 167770200
I0521 18:16:03.188793 15401 layer_factory.hpp:77] Creating layer conv2
I0521 18:16:03.188802 15401 net.cpp:86] Creating Layer conv2
I0521 18:16:03.188804 15401 net.cpp:408] conv2 <- pool1
I0521 18:16:03.188809 15401 net.cpp:382] conv2 -> conv2
I0521 18:16:03.196344 15401 net.cpp:124] Setting up conv2
I0521 18:16:03.196357 15401 net.cpp:131] Top shape: 50 256 24 24 (7372800)
I0521 18:16:03.196359 15401 net.cpp:139] Memory required for data: 197261400
I0521 18:16:03.196365 15401 layer_factory.hpp:77] Creating layer bn2
I0521 18:16:03.196372 15401 net.cpp:86] Creating Layer bn2
I0521 18:16:03.196375 15401 net.cpp:408] bn2 <- conv2
I0521 18:16:03.196380 15401 net.cpp:382] bn2 -> bn2
I0521 18:16:03.196506 15401 net.cpp:124] Setting up bn2
I0521 18:16:03.196512 15401 net.cpp:131] Top shape: 50 256 24 24 (7372800)
I0521 18:16:03.196514 15401 net.cpp:139] Memory required for data: 226752600
I0521 18:16:03.196521 15401 layer_factory.hpp:77] Creating layer relu2
I0521 18:16:03.196528 15401 net.cpp:86] Creating Layer relu2
I0521 18:16:03.196530 15401 net.cpp:408] relu2 <- bn2
I0521 18:16:03.196534 15401 net.cpp:369] relu2 -> bn2 (in-place)
I0521 18:16:03.196817 15401 net.cpp:124] Setting up relu2
I0521 18:16:03.196825 15401 net.cpp:131] Top shape: 50 256 24 24 (7372800)
I0521 18:16:03.196826 15401 net.cpp:139] Memory required for data: 256243800
I0521 18:16:03.196830 15401 layer_factory.hpp:77] Creating layer pool2
I0521 18:16:03.196835 15401 net.cpp:86] Creating Layer pool2
I0521 18:16:03.196837 15401 net.cpp:408] pool2 <- bn2
I0521 18:16:03.196842 15401 net.cpp:382] pool2 -> pool2
I0521 18:16:03.196869 15401 net.cpp:124] Setting up pool2
I0521 18:16:03.196874 15401 net.cpp:131] Top shape: 50 256 12 12 (1843200)
I0521 18:16:03.196877 15401 net.cpp:139] Memory required for data: 263616600
I0521 18:16:03.196878 15401 layer_factory.hpp:77] Creating layer conv3
I0521 18:16:03.196887 15401 net.cpp:86] Creating Layer conv3
I0521 18:16:03.196888 15401 net.cpp:408] conv3 <- pool2
I0521 18:16:03.196892 15401 net.cpp:382] conv3 -> conv3
I0521 18:16:03.205559 15401 net.cpp:124] Setting up conv3
I0521 18:16:03.205574 15401 net.cpp:131] Top shape: 50 384 12 12 (2764800)
I0521 18:16:03.205575 15401 net.cpp:139] Memory required for data: 274675800
I0521 18:16:03.205581 15401 layer_factory.hpp:77] Creating layer relu3
I0521 18:16:03.205585 15401 net.cpp:86] Creating Layer relu3
I0521 18:16:03.205588 15401 net.cpp:408] relu3 <- conv3
I0521 18:16:03.205592 15401 net.cpp:369] relu3 -> conv3 (in-place)
I0521 18:16:03.206094 15401 net.cpp:124] Setting up relu3
I0521 18:16:03.206101 15401 net.cpp:131] Top shape: 50 384 12 12 (2764800)
I0521 18:16:03.206104 15401 net.cpp:139] Memory required for data: 285735000
I0521 18:16:03.206106 15401 layer_factory.hpp:77] Creating layer conv4
I0521 18:16:03.206115 15401 net.cpp:86] Creating Layer conv4
I0521 18:16:03.206117 15401 net.cpp:408] conv4 <- conv3
I0521 18:16:03.206123 15401 net.cpp:382] conv4 -> conv4
I0521 18:16:03.218704 15401 net.cpp:124] Setting up conv4
I0521 18:16:03.218727 15401 net.cpp:131] Top shape: 50 384 12 12 (2764800)
I0521 18:16:03.218729 15401 net.cpp:139] Memory required for data: 296794200
I0521 18:16:03.218739 15401 layer_factory.hpp:77] Creating layer relu4
I0521 18:16:03.218746 15401 net.cpp:86] Creating Layer relu4
I0521 18:16:03.218750 15401 net.cpp:408] relu4 <- conv4
I0521 18:16:03.218756 15401 net.cpp:369] relu4 -> conv4 (in-place)
I0521 18:16:03.219244 15401 net.cpp:124] Setting up relu4
I0521 18:16:03.219252 15401 net.cpp:131] Top shape: 50 384 12 12 (2764800)
I0521 18:16:03.219255 15401 net.cpp:139] Memory required for data: 307853400
I0521 18:16:03.219259 15401 layer_factory.hpp:77] Creating layer conv5
I0521 18:16:03.219270 15401 net.cpp:86] Creating Layer conv5
I0521 18:16:03.219274 15401 net.cpp:408] conv5 <- conv4
I0521 18:16:03.219280 15401 net.cpp:382] conv5 -> conv5
I0521 18:16:03.229859 15401 net.cpp:124] Setting up conv5
I0521 18:16:03.229874 15401 net.cpp:131] Top shape: 50 256 12 12 (1843200)
I0521 18:16:03.229876 15401 net.cpp:139] Memory required for data: 315226200
I0521 18:16:03.229904 15401 layer_factory.hpp:77] Creating layer relu5
I0521 18:16:03.229912 15401 net.cpp:86] Creating Layer relu5
I0521 18:16:03.229916 15401 net.cpp:408] relu5 <- conv5
I0521 18:16:03.229920 15401 net.cpp:369] relu5 -> conv5 (in-place)
I0521 18:16:03.230409 15401 net.cpp:124] Setting up relu5
I0521 18:16:03.230420 15401 net.cpp:131] Top shape: 50 256 12 12 (1843200)
I0521 18:16:03.230422 15401 net.cpp:139] Memory required for data: 322599000
I0521 18:16:03.230425 15401 layer_factory.hpp:77] Creating layer pool5
I0521 18:16:03.230437 15401 net.cpp:86] Creating Layer pool5
I0521 18:16:03.230440 15401 net.cpp:408] pool5 <- conv5
I0521 18:16:03.230444 15401 net.cpp:382] pool5 -> pool5
I0521 18:16:03.230475 15401 net.cpp:124] Setting up pool5
I0521 18:16:03.230479 15401 net.cpp:131] Top shape: 50 256 6 6 (460800)
I0521 18:16:03.230481 15401 net.cpp:139] Memory required for data: 324442200
I0521 18:16:03.230484 15401 layer_factory.hpp:77] Creating layer fc6
I0521 18:16:03.230491 15401 net.cpp:86] Creating Layer fc6
I0521 18:16:03.230495 15401 net.cpp:408] fc6 <- pool5
I0521 18:16:03.230499 15401 net.cpp:382] fc6 -> fc6
I0521 18:16:03.493840 15401 net.cpp:124] Setting up fc6
I0521 18:16:03.493880 15401 net.cpp:131] Top shape: 50 4096 (204800)
I0521 18:16:03.493882 15401 net.cpp:139] Memory required for data: 325261400
I0521 18:16:03.493902 15401 layer_factory.hpp:77] Creating layer relu6
I0521 18:16:03.493914 15401 net.cpp:86] Creating Layer relu6
I0521 18:16:03.493917 15401 net.cpp:408] relu6 <- fc6
I0521 18:16:03.493924 15401 net.cpp:369] relu6 -> fc6 (in-place)
I0521 18:16:03.494757 15401 net.cpp:124] Setting up relu6
I0521 18:16:03.494769 15401 net.cpp:131] Top shape: 50 4096 (204800)
I0521 18:16:03.494771 15401 net.cpp:139] Memory required for data: 326080600
I0521 18:16:03.494773 15401 layer_factory.hpp:77] Creating layer drop6
I0521 18:16:03.494782 15401 net.cpp:86] Creating Layer drop6
I0521 18:16:03.494784 15401 net.cpp:408] drop6 <- fc6
I0521 18:16:03.494789 15401 net.cpp:369] drop6 -> fc6 (in-place)
I0521 18:16:03.494810 15401 net.cpp:124] Setting up drop6
I0521 18:16:03.494817 15401 net.cpp:131] Top shape: 50 4096 (204800)
I0521 18:16:03.494818 15401 net.cpp:139] Memory required for data: 326899800
I0521 18:16:03.494820 15401 layer_factory.hpp:77] Creating layer fc7
I0521 18:16:03.494827 15401 net.cpp:86] Creating Layer fc7
I0521 18:16:03.494829 15401 net.cpp:408] fc7 <- fc6
I0521 18:16:03.494834 15401 net.cpp:382] fc7 -> fc7
I0521 18:16:03.612087 15401 net.cpp:124] Setting up fc7
I0521 18:16:03.612123 15401 net.cpp:131] Top shape: 50 4096 (204800)
I0521 18:16:03.612126 15401 net.cpp:139] Memory required for data: 327719000
I0521 18:16:03.612138 15401 layer_factory.hpp:77] Creating layer relu7
I0521 18:16:03.612149 15401 net.cpp:86] Creating Layer relu7
I0521 18:16:03.612152 15401 net.cpp:408] relu7 <- fc7
I0521 18:16:03.612162 15401 net.cpp:369] relu7 -> fc7 (in-place)
I0521 18:16:03.612632 15401 net.cpp:124] Setting up relu7
I0521 18:16:03.612644 15401 net.cpp:131] Top shape: 50 4096 (204800)
I0521 18:16:03.612646 15401 net.cpp:139] Memory required for data: 328538200
I0521 18:16:03.612649 15401 layer_factory.hpp:77] Creating layer drop7
I0521 18:16:03.612658 15401 net.cpp:86] Creating Layer drop7
I0521 18:16:03.612660 15401 net.cpp:408] drop7 <- fc7
I0521 18:16:03.612664 15401 net.cpp:369] drop7 -> fc7 (in-place)
I0521 18:16:03.612687 15401 net.cpp:124] Setting up drop7
I0521 18:16:03.612695 15401 net.cpp:131] Top shape: 50 4096 (204800)
I0521 18:16:03.612697 15401 net.cpp:139] Memory required for data: 329357400
I0521 18:16:03.612699 15401 layer_factory.hpp:77] Creating layer fc8
I0521 18:16:03.612705 15401 net.cpp:86] Creating Layer fc8
I0521 18:16:03.612707 15401 net.cpp:408] fc8 <- fc7
I0521 18:16:03.612710 15401 net.cpp:382] fc8 -> fc8
I0521 18:16:03.613786 15401 net.cpp:124] Setting up fc8
I0521 18:16:03.613792 15401 net.cpp:131] Top shape: 50 43 (2150)
I0521 18:16:03.613793 15401 net.cpp:139] Memory required for data: 329366000
I0521 18:16:03.613797 15401 layer_factory.hpp:77] Creating layer fc8_fc8_0_split
I0521 18:16:03.613821 15401 net.cpp:86] Creating Layer fc8_fc8_0_split
I0521 18:16:03.613822 15401 net.cpp:408] fc8_fc8_0_split <- fc8
I0521 18:16:03.613826 15401 net.cpp:382] fc8_fc8_0_split -> fc8_fc8_0_split_0
I0521 18:16:03.613828 15401 net.cpp:382] fc8_fc8_0_split -> fc8_fc8_0_split_1
I0521 18:16:03.613852 15401 net.cpp:124] Setting up fc8_fc8_0_split
I0521 18:16:03.613855 15401 net.cpp:131] Top shape: 50 43 (2150)
I0521 18:16:03.613857 15401 net.cpp:131] Top shape: 50 43 (2150)
I0521 18:16:03.613858 15401 net.cpp:139] Memory required for data: 329383200
I0521 18:16:03.613860 15401 layer_factory.hpp:77] Creating layer accuracy
I0521 18:16:03.613867 15401 net.cpp:86] Creating Layer accuracy
I0521 18:16:03.613868 15401 net.cpp:408] accuracy <- fc8_fc8_0_split_0
I0521 18:16:03.613870 15401 net.cpp:408] accuracy <- label_data_1_split_0
I0521 18:16:03.613873 15401 net.cpp:382] accuracy -> accuracy
…
