…
I0521 16:50:16.235152 13296 net.cpp:296] The NetState phase (0) differed from the phase (1) specified by a rule in layer accuracy
I0521 16:50:16.235347 13296 net.cpp:53] Initializing net from parameters: 
name: "ShwangNet"
state {
  phase: TRAIN
  level: 0
  stage: ""
}
layer {
  name: "data"
  type: "Data"
  top: "data"
  top: "label"
  include {
    phase: TRAIN
  }
  transform_param {
    mirror: true
    crop_size: 200
    mean_file: "./data/mean_lmdb_train/gtsrb_train_mean.binaryproto"
  }
  data_param {
    source: "./data/lmdb_train"
    batch_size: 256
    backend: LMDB
  }
}
layer {
  name: "conv1"
  type: "Convolution"
  bottom: "data"
  top: "conv1"
  param {
    lr_mult: 1
    decay_mult: 1
  }
  param {
    lr_mult: 2
    decay_mult: 0
  }
  convolution_param {
    num_output: 96
    kernel_size: 11
    stride: 4
    weight_filler {
      type: "gaussian"
      std: 0.01
    }
    bias_filler {
      type: "constant"
      value: 0
    }
  }
}
layer {
  name: "bn1"
  type: "BatchNorm"
  bottom: "conv1"
  top: "bn1"
  param {
    lr_mult: 0
    decay_mult: 0
  }
  param {
    lr_mult: 0
    decay_mult: 0
  }
  param {
    lr_mult: 0
    decay_mult: 0
  }
}
layer {
  name: "relu1"
  type: "ReLU"
  bottom: "bn1"
  top: "bn1"
}
layer {
  name: "pool1"
  type: "Pooling"
  bottom: "bn1"
  top: "pool1"
  pooling_param {
    pool: MAX
    kernel_size: 3
    stride: 2
  }
}
layer {
  name: "conv2"
  type: "Convolution"
  bottom: "pool1"
  top: "conv2"
  param {
    lr_mult: 1
    decay_mult: 1
  }
  param {
    lr_mult: 2
    decay_mult: 0
  }
  convolution_param {
    num_output: 256
    pad: 2
    kernel_size: 5
    group: 2
    weight_filler {
      type: "gaussian"
      std: 0.01
    }
    bias_filler {
      type: "constant"
      value: 1
    }
  }
}
layer {
  name: "bn2"
  type: "BatchNorm"
  bottom: "conv2"
  top: "bn2"
  param {
    lr_mult: 0
    decay_mult: 0
  }
  param {
    lr_mult: 0
    decay_mult: 0
  }
  param {
    lr_mult: 0
    decay_mult: 0
  }
}
layer {
  name: "relu2"
  type: "ReLU"
  bottom: "bn2"
  top: "bn2"
}
layer {
  name: "pool2"
  type: "Pooling"
  bottom: "bn2"
  top: "pool2"
  pooling_param {
    pool: MAX
    kernel_size: 3
    stride: 2
  }
}
layer {
  name: "conv3"
  type: "Convolution"
  bottom: "pool2"
  top: "conv3"
  param {
    lr_mult: 1
    decay_mult: 1
  }
  param {
    lr_mult: 2
    decay_mult: 0
  }
  convolution_param {
    num_output: 384
    pad: 1
    kernel_size: 3
    weight_filler {
      type: "gaussian"
      std: 0.01
    }
    bias_filler {
      type: "constant"
      value: 0
    }
  }
}
layer {
  name: "relu3"
  type: "ReLU"
  bottom: "conv3"
  top: "conv3"
}
layer {
  name: "conv4"
  type: "Convolution"
  bottom: "conv3"
  top: "conv4"
  param {
    lr_mult: 1
    decay_mult: 1
  }
  param {
    lr_mult: 2
    decay_mult: 0
  }
  convolution_param {
    num_output: 384
    pad: 1
    kernel_size: 3
    group: 2
    weight_filler {
      type: "gaussian"
      std: 0.01
    }
    bias_filler {
      type: "constant"
      value: 1
    }
  }
}
layer {
  name: "relu4"
  type: "ReLU"
  bottom: "conv4"
  top: "conv4"
}
layer {
  name: "conv5"
  type: "Convolution"
  bottom: "conv4"
  top: "conv5"
  param {
    lr_mult: 1
    decay_mult: 1
  }
  param {
    lr_mult: 2
    decay_mult: 0
  }
  convolution_param {
    num_output: 256
    pad: 1
    kernel_size: 3
    group: 2
    weight_filler {
      type: "gaussian"
      std: 0.01
    }
    bias_filler {
      type: "constant"
      value: 1
    }
  }
}
layer {
  name: "relu5"
  type: "ReLU"
  bottom: "conv5"
  top: "conv5"
}
layer {
  name: "pool5"
  type: "Pooling"
  bottom: "conv5"
  top: "pool5"
  pooling_param {
    pool: MAX
    kernel_size: 3
    stride: 2
  }
}
layer {
  name: "fc6"
  type: "InnerProduct"
  bottom: "pool5"
  top: "fc6"
  param {
    lr_mult: 1
    decay_mult: 1
  }
  param {
    lr_mult: 2
    decay_mult: 0
  }
  inner_product_param {
    num_output: 4096
    weight_filler {
      type: "gaussian"
      std: 0.005
    }
    bias_filler {
      type: "constant"
      value: 1
    }
  }
}
layer {
  name: "relu6"
  type: "ReLU"
  bottom: "fc6"
  top: "fc6"
}
layer {
  name: "drop6"
  type: "Dropout"
  bottom: "fc6"
  top: "fc6"
  dropout_param {
    dropout_ratio: 0.5
  }
}
layer {
  name: "fc7"
  type: "InnerProduct"
  bottom: "fc6"
  top: "fc7"
  param {
    lr_mult: 1
    decay_mult: 1
  }
  param {
    lr_mult: 2
    decay_mult: 0
  }
  inner_product_param {
    num_output: 4096
    weight_filler {
      type: "gaussian"
      std: 0.005
    }
    bias_filler {
      type: "constant"
      value: 1
    }
  }
}
layer {
  name: "relu7"
  type: "ReLU"
  bottom: "fc7"
  top: "fc7"
}
layer {
  name: "drop7"
  type: "Dropout"
  bottom: "fc7"
  top: "fc7"
  dropout_param {
    dropout_ratio: 0.5
  }
}
layer {
  name: "fc8"
  type: "InnerProduct"
  bottom: "fc7"
  top: "fc8"
  param {
    lr_mult: 1
    decay_mult: 1
  }
  param {
    lr_mult: 2
    decay_mult: 0
  }
  inner_product_param {
    num_output: 43
    weight_filler {
      type: "gaussian"
      std: 0.01
    }
    bias_filler {
      type: "constant"
      value: 0
    }
  }
}
layer {
  name: "loss"
  type: "SoftmaxWithLoss"
  bottom: "fc8"
  bottom: "label"
  top: "loss"
}
I0521 16:50:16.235497 13296 layer_factory.hpp:77] Creating layer data
I0521 16:50:16.239630 13296 db_lmdb.cpp:35] Opened lmdb ./data/lmdb_train
I0521 16:50:16.239665 13296 net.cpp:86] Creating Layer data
I0521 16:50:16.239676 13296 net.cpp:382] data -> data
I0521 16:50:16.239701 13296 net.cpp:382] data -> label
I0521 16:50:16.239714 13296 data_transformer.cpp:25] Loading mean file from: ./data/mean_lmdb_train/gtsrb_train_mean.binaryproto
I0521 16:50:16.251438 13296 data_layer.cpp:45] output data size: 256,3,200,200
I0521 16:50:16.520944 13296 net.cpp:124] Setting up data
I0521 16:50:16.520972 13296 net.cpp:131] Top shape: 256 3 200 200 (30720000)
I0521 16:50:16.520975 13296 net.cpp:131] Top shape: 256 (256)
I0521 16:50:16.520977 13296 net.cpp:139] Memory required for data: 122881024
I0521 16:50:16.520985 13296 layer_factory.hpp:77] Creating layer conv1
I0521 16:50:16.521008 13296 net.cpp:86] Creating Layer conv1
I0521 16:50:16.521013 13296 net.cpp:408] conv1 <- data
I0521 16:50:16.521023 13296 net.cpp:382] conv1 -> conv1
I0521 16:50:18.145547 13296 net.cpp:124] Setting up conv1
I0521 16:50:18.145573 13296 net.cpp:131] Top shape: 256 96 48 48 (56623104)
I0521 16:50:18.145576 13296 net.cpp:139] Memory required for data: 349373440
I0521 16:50:18.145592 13296 layer_factory.hpp:77] Creating layer bn1
I0521 16:50:18.145601 13296 net.cpp:86] Creating Layer bn1
I0521 16:50:18.145603 13296 net.cpp:408] bn1 <- conv1
I0521 16:50:18.145609 13296 net.cpp:382] bn1 -> bn1
I0521 16:50:18.145732 13296 net.cpp:124] Setting up bn1
I0521 16:50:18.145736 13296 net.cpp:131] Top shape: 256 96 48 48 (56623104)
I0521 16:50:18.145737 13296 net.cpp:139] Memory required for data: 575865856
I0521 16:50:18.145743 13296 layer_factory.hpp:77] Creating layer relu1
I0521 16:50:18.145747 13296 net.cpp:86] Creating Layer relu1
I0521 16:50:18.145750 13296 net.cpp:408] relu1 <- bn1
I0521 16:50:18.145768 13296 net.cpp:369] relu1 -> bn1 (in-place)
I0521 16:50:18.146193 13296 net.cpp:124] Setting up relu1
I0521 16:50:18.146199 13296 net.cpp:131] Top shape: 256 96 48 48 (56623104)
I0521 16:50:18.146200 13296 net.cpp:139] Memory required for data: 802358272
I0521 16:50:18.146203 13296 layer_factory.hpp:77] Creating layer pool1
I0521 16:50:18.146209 13296 net.cpp:86] Creating Layer pool1
I0521 16:50:18.146209 13296 net.cpp:408] pool1 <- bn1
I0521 16:50:18.146212 13296 net.cpp:382] pool1 -> pool1
I0521 16:50:18.146245 13296 net.cpp:124] Setting up pool1
I0521 16:50:18.146247 13296 net.cpp:131] Top shape: 256 96 24 24 (14155776)
I0521 16:50:18.146250 13296 net.cpp:139] Memory required for data: 858981376
I0521 16:50:18.146251 13296 layer_factory.hpp:77] Creating layer conv2
I0521 16:50:18.146258 13296 net.cpp:86] Creating Layer conv2
I0521 16:50:18.146260 13296 net.cpp:408] conv2 <- pool1
I0521 16:50:18.146262 13296 net.cpp:382] conv2 -> conv2
I0521 16:50:18.151952 13296 net.cpp:124] Setting up conv2
I0521 16:50:18.151963 13296 net.cpp:131] Top shape: 256 256 24 24 (37748736)
I0521 16:50:18.151965 13296 net.cpp:139] Memory required for data: 1009976320
I0521 16:50:18.151970 13296 layer_factory.hpp:77] Creating layer bn2
I0521 16:50:18.151974 13296 net.cpp:86] Creating Layer bn2
I0521 16:50:18.151975 13296 net.cpp:408] bn2 <- conv2
I0521 16:50:18.151979 13296 net.cpp:382] bn2 -> bn2
I0521 16:50:18.152099 13296 net.cpp:124] Setting up bn2
I0521 16:50:18.152107 13296 net.cpp:131] Top shape: 256 256 24 24 (37748736)
I0521 16:50:18.152108 13296 net.cpp:139] Memory required for data: 1160971264
I0521 16:50:18.152114 13296 layer_factory.hpp:77] Creating layer relu2
I0521 16:50:18.152118 13296 net.cpp:86] Creating Layer relu2
I0521 16:50:18.152120 13296 net.cpp:408] relu2 <- bn2
I0521 16:50:18.152122 13296 net.cpp:369] relu2 -> bn2 (in-place)
I0521 16:50:18.152670 13296 net.cpp:124] Setting up relu2
I0521 16:50:18.152678 13296 net.cpp:131] Top shape: 256 256 24 24 (37748736)
I0521 16:50:18.152679 13296 net.cpp:139] Memory required for data: 1311966208
I0521 16:50:18.152681 13296 layer_factory.hpp:77] Creating layer pool2
I0521 16:50:18.152686 13296 net.cpp:86] Creating Layer pool2
I0521 16:50:18.152688 13296 net.cpp:408] pool2 <- bn2
I0521 16:50:18.152691 13296 net.cpp:382] pool2 -> pool2
I0521 16:50:18.152714 13296 net.cpp:124] Setting up pool2
I0521 16:50:18.152716 13296 net.cpp:131] Top shape: 256 256 12 12 (9437184)
I0521 16:50:18.152719 13296 net.cpp:139] Memory required for data: 1349714944
I0521 16:50:18.152720 13296 layer_factory.hpp:77] Creating layer conv3
I0521 16:50:18.152725 13296 net.cpp:86] Creating Layer conv3
I0521 16:50:18.152726 13296 net.cpp:408] conv3 <- pool2
I0521 16:50:18.152729 13296 net.cpp:382] conv3 -> conv3
I0521 16:50:18.159981 13296 net.cpp:124] Setting up conv3
I0521 16:50:18.159991 13296 net.cpp:131] Top shape: 256 384 12 12 (14155776)
I0521 16:50:18.159992 13296 net.cpp:139] Memory required for data: 1406338048
I0521 16:50:18.159996 13296 layer_factory.hpp:77] Creating layer relu3
I0521 16:50:18.159999 13296 net.cpp:86] Creating Layer relu3
I0521 16:50:18.160001 13296 net.cpp:408] relu3 <- conv3
I0521 16:50:18.160004 13296 net.cpp:369] relu3 -> conv3 (in-place)
I0521 16:50:18.160415 13296 net.cpp:124] Setting up relu3
I0521 16:50:18.160421 13296 net.cpp:131] Top shape: 256 384 12 12 (14155776)
I0521 16:50:18.160423 13296 net.cpp:139] Memory required for data: 1462961152
I0521 16:50:18.160425 13296 layer_factory.hpp:77] Creating layer conv4
I0521 16:50:18.160430 13296 net.cpp:86] Creating Layer conv4
I0521 16:50:18.160432 13296 net.cpp:408] conv4 <- conv3
I0521 16:50:18.160435 13296 net.cpp:382] conv4 -> conv4
I0521 16:50:18.173786 13296 net.cpp:124] Setting up conv4
I0521 16:50:18.173810 13296 net.cpp:131] Top shape: 256 384 12 12 (14155776)
I0521 16:50:18.173813 13296 net.cpp:139] Memory required for data: 1519584256
I0521 16:50:18.173821 13296 layer_factory.hpp:77] Creating layer relu4
I0521 16:50:18.173830 13296 net.cpp:86] Creating Layer relu4
I0521 16:50:18.173833 13296 net.cpp:408] relu4 <- conv4
I0521 16:50:18.173868 13296 net.cpp:369] relu4 -> conv4 (in-place)
I0521 16:50:18.175034 13296 net.cpp:124] Setting up relu4
I0521 16:50:18.175047 13296 net.cpp:131] Top shape: 256 384 12 12 (14155776)
I0521 16:50:18.175050 13296 net.cpp:139] Memory required for data: 1576207360
I0521 16:50:18.175055 13296 layer_factory.hpp:77] Creating layer conv5
I0521 16:50:18.175068 13296 net.cpp:86] Creating Layer conv5
I0521 16:50:18.175071 13296 net.cpp:408] conv5 <- conv4
I0521 16:50:18.175077 13296 net.cpp:382] conv5 -> conv5
I0521 16:50:18.190659 13296 net.cpp:124] Setting up conv5
I0521 16:50:18.190685 13296 net.cpp:131] Top shape: 256 256 12 12 (9437184)
I0521 16:50:18.190688 13296 net.cpp:139] Memory required for data: 1613956096
I0521 16:50:18.190696 13296 layer_factory.hpp:77] Creating layer relu5
I0521 16:50:18.190706 13296 net.cpp:86] Creating Layer relu5
I0521 16:50:18.190708 13296 net.cpp:408] relu5 <- conv5
I0521 16:50:18.190713 13296 net.cpp:369] relu5 -> conv5 (in-place)
I0521 16:50:18.191290 13296 net.cpp:124] Setting up relu5
I0521 16:50:18.191300 13296 net.cpp:131] Top shape: 256 256 12 12 (9437184)
I0521 16:50:18.191303 13296 net.cpp:139] Memory required for data: 1651704832
I0521 16:50:18.191305 13296 layer_factory.hpp:77] Creating layer pool5
I0521 16:50:18.191311 13296 net.cpp:86] Creating Layer pool5
I0521 16:50:18.191314 13296 net.cpp:408] pool5 <- conv5
I0521 16:50:18.191318 13296 net.cpp:382] pool5 -> pool5
I0521 16:50:18.191352 13296 net.cpp:124] Setting up pool5
I0521 16:50:18.191357 13296 net.cpp:131] Top shape: 256 256 6 6 (2359296)
I0521 16:50:18.191359 13296 net.cpp:139] Memory required for data: 1661142016
I0521 16:50:18.191361 13296 layer_factory.hpp:77] Creating layer fc6
I0521 16:50:18.191370 13296 net.cpp:86] Creating Layer fc6
I0521 16:50:18.191371 13296 net.cpp:408] fc6 <- pool5
I0521 16:50:18.191376 13296 net.cpp:382] fc6 -> fc6
I0521 16:50:18.467276 13296 net.cpp:124] Setting up fc6
I0521 16:50:18.467308 13296 net.cpp:131] Top shape: 256 4096 (1048576)
I0521 16:50:18.467310 13296 net.cpp:139] Memory required for data: 1665336320
I0521 16:50:18.467324 13296 layer_factory.hpp:77] Creating layer relu6
I0521 16:50:18.467332 13296 net.cpp:86] Creating Layer relu6
I0521 16:50:18.467334 13296 net.cpp:408] relu6 <- fc6
I0521 16:50:18.467339 13296 net.cpp:369] relu6 -> fc6 (in-place)
I0521 16:50:18.469398 13296 net.cpp:124] Setting up relu6
I0521 16:50:18.469409 13296 net.cpp:131] Top shape: 256 4096 (1048576)
I0521 16:50:18.469411 13296 net.cpp:139] Memory required for data: 1669530624
I0521 16:50:18.469413 13296 layer_factory.hpp:77] Creating layer drop6
I0521 16:50:18.469419 13296 net.cpp:86] Creating Layer drop6
I0521 16:50:18.469421 13296 net.cpp:408] drop6 <- fc6
I0521 16:50:18.469424 13296 net.cpp:369] drop6 -> fc6 (in-place)
I0521 16:50:18.469445 13296 net.cpp:124] Setting up drop6
I0521 16:50:18.469447 13296 net.cpp:131] Top shape: 256 4096 (1048576)
I0521 16:50:18.469449 13296 net.cpp:139] Memory required for data: 1673724928
I0521 16:50:18.469450 13296 layer_factory.hpp:77] Creating layer fc7
I0521 16:50:18.469455 13296 net.cpp:86] Creating Layer fc7
I0521 16:50:18.469456 13296 net.cpp:408] fc7 <- fc6
I0521 16:50:18.469460 13296 net.cpp:382] fc7 -> fc7
I0521 16:50:18.598804 13296 net.cpp:124] Setting up fc7
I0521 16:50:18.598839 13296 net.cpp:131] Top shape: 256 4096 (1048576)
I0521 16:50:18.598840 13296 net.cpp:139] Memory required for data: 1677919232
I0521 16:50:18.598851 13296 layer_factory.hpp:77] Creating layer relu7
I0521 16:50:18.598860 13296 net.cpp:86] Creating Layer relu7
I0521 16:50:18.598862 13296 net.cpp:408] relu7 <- fc7
I0521 16:50:18.598867 13296 net.cpp:369] relu7 -> fc7 (in-place)
I0521 16:50:18.599599 13296 net.cpp:124] Setting up relu7
I0521 16:50:18.599613 13296 net.cpp:131] Top shape: 256 4096 (1048576)
I0521 16:50:18.599615 13296 net.cpp:139] Memory required for data: 1682113536
I0521 16:50:18.599617 13296 layer_factory.hpp:77] Creating layer drop7
I0521 16:50:18.599624 13296 net.cpp:86] Creating Layer drop7
I0521 16:50:18.599625 13296 net.cpp:408] drop7 <- fc7
I0521 16:50:18.599656 13296 net.cpp:369] drop7 -> fc7 (in-place)
I0521 16:50:18.599674 13296 net.cpp:124] Setting up drop7
I0521 16:50:18.599678 13296 net.cpp:131] Top shape: 256 4096 (1048576)
I0521 16:50:18.599680 13296 net.cpp:139] Memory required for data: 1686307840
I0521 16:50:18.599683 13296 layer_factory.hpp:77] Creating layer fc8
I0521 16:50:18.599689 13296 net.cpp:86] Creating Layer fc8
I0521 16:50:18.599689 13296 net.cpp:408] fc8 <- fc7
I0521 16:50:18.599692 13296 net.cpp:382] fc8 -> fc8
I0521 16:50:18.601560 13296 net.cpp:124] Setting up fc8
I0521 16:50:18.601567 13296 net.cpp:131] Top shape: 256 43 (11008)
I0521 16:50:18.601569 13296 net.cpp:139] Memory required for data: 1686351872
I0521 16:50:18.601573 13296 layer_factory.hpp:77] Creating layer loss
I0521 16:50:18.601577 13296 net.cpp:86] Creating Layer loss
I0521 16:50:18.601579 13296 net.cpp:408] loss <- fc8
I0521 16:50:18.601581 13296 net.cpp:408] loss <- label
I0521 16:50:18.601586 13296 net.cpp:382] loss -> loss
I0521 16:50:18.601598 13296 layer_factory.hpp:77] Creating layer loss
…
I0521 16:50:18.602206 13296 net.cpp:296] The NetState phase (1) differed from the phase (0) specified by a rule in layer data
I0521 16:50:18.602324 13296 net.cpp:53] Initializing net from parameters: 
name: "ShwangNet"
state {
  phase: TEST
}
layer {
  name: "data"
  type: "Data"
  top: "data"
  top: "label"
  include {
    phase: TEST
  }
  transform_param {
    mirror: false
    crop_size: 200
    mean_file: "./data/mean_lmdb_test/gtsrb_test_mean.binaryproto"
  }
  data_param {
    source: "./data/lmdb_test"
    batch_size: 50
    backend: LMDB
  }
}
layer {
  name: "conv1"
  type: "Convolution"
  bottom: "data"
  top: "conv1"
  param {
    lr_mult: 1
    decay_mult: 1
  }
  param {
    lr_mult: 2
    decay_mult: 0
  }
  convolution_param {
    num_output: 96
    kernel_size: 11
    stride: 4
    weight_filler {
      type: "gaussian"
      std: 0.01
    }
    bias_filler {
      type: "constant"
      value: 0
    }
  }
}
layer {
  name: "bn1"
  type: "BatchNorm"
  bottom: "conv1"
  top: "bn1"
  param {
    lr_mult: 0
    decay_mult: 0
  }
  param {
    lr_mult: 0
    decay_mult: 0
  }
  param {
    lr_mult: 0
    decay_mult: 0
  }
}
layer {
  name: "relu1"
  type: "ReLU"
  bottom: "bn1"
  top: "bn1"
}
layer {
  name: "pool1"
  type: "Pooling"
  bottom: "bn1"
  top: "pool1"
  pooling_param {
    pool: MAX
    kernel_size: 3
    stride: 2
  }
}
layer {
  name: "conv2"
  type: "Convolution"
  bottom: "pool1"
  top: "conv2"
  param {
    lr_mult: 1
    decay_mult: 1
  }
  param {
    lr_mult: 2
    decay_mult: 0
  }
  convolution_param {
    num_output: 256
    pad: 2
    kernel_size: 5
    group: 2
    weight_filler {
      type: "gaussian"
      std: 0.01
    }
    bias_filler {
      type: "constant"
      value: 1
    }
  }
}
layer {
  name: "bn2"
  type: "BatchNorm"
  bottom: "conv2"
  top: "bn2"
  param {
    lr_mult: 0
    decay_mult: 0
  }
  param {
    lr_mult: 0
    decay_mult: 0
  }
  param {
    lr_mult: 0
    decay_mult: 0
  }
}
layer {
  name: "relu2"
  type: "ReLU"
  bottom: "bn2"
  top: "bn2"
}
layer {
  name: "pool2"
  type: "Pooling"
  bottom: "bn2"
  top: "pool2"
  pooling_param {
    pool: MAX
    kernel_size: 3
    stride: 2
  }
}
layer {
  name: "conv3"
  type: "Convolution"
  bottom: "pool2"
  top: "conv3"
  param {
    lr_mult: 1
    decay_mult: 1
  }
  param {
    lr_mult: 2
    decay_mult: 0
  }
  convolution_param {
    num_output: 384
    pad: 1
    kernel_size: 3
    weight_filler {
      type: "gaussian"
      std: 0.01
    }
    bias_filler {
      type: "constant"
      value: 0
    }
  }
}
layer {
  name: "relu3"
  type: "ReLU"
  bottom: "conv3"
  top: "conv3"
}
layer {
  name: "conv4"
  type: "Convolution"
  bottom: "conv3"
  top: "conv4"
  param {
    lr_mult: 1
    decay_mult: 1
  }
  param {
    lr_mult: 2
    decay_mult: 0
  }
  convolution_param {
    num_output: 384
    pad: 1
    kernel_size: 3
    group: 2
    weight_filler {
      type: "gaussian"
      std: 0.01
    }
    bias_filler {
      type: "constant"
      value: 1
    }
  }
}
layer {
  name: "relu4"
  type: "ReLU"
  bottom: "conv4"
  top: "conv4"
}
layer {
  name: "conv5"
  type: "Convolution"
  bottom: "conv4"
  top: "conv5"
  param {
    lr_mult: 1
    decay_mult: 1
  }
  param {
    lr_mult: 2
    decay_mult: 0
  }
  convolution_param {
    num_output: 256
    pad: 1
    kernel_size: 3
    group: 2
    weight_filler {
      type: "gaussian"
      std: 0.01
    }
    bias_filler {
      type: "constant"
      value: 1
    }
  }
}
layer {
  name: "relu5"
  type: "ReLU"
  bottom: "conv5"
  top: "conv5"
}
layer {
  name: "pool5"
  type: "Pooling"
  bottom: "conv5"
  top: "pool5"
  pooling_param {
    pool: MAX
    kernel_size: 3
    stride: 2
  }
}
layer {
  name: "fc6"
  type: "InnerProduct"
  bottom: "pool5"
  top: "fc6"
  param {
    lr_mult: 1
    decay_mult: 1
  }
  param {
    lr_mult: 2
    decay_mult: 0
  }
  inner_product_param {
    num_output: 4096
    weight_filler {
      type: "gaussian"
      std: 0.005
    }
    bias_filler {
      type: "constant"
      value: 1
    }
  }
}
layer {
  name: "relu6"
  type: "ReLU"
  bottom: "fc6"
  top: "fc6"
}
layer {
  name: "drop6"
  type: "Dropout"
  bottom: "fc6"
  top: "fc6"
  dropout_param {
    dropout_ratio: 0.5
  }
}
layer {
  name: "fc7"
  type: "InnerProduct"
  bottom: "fc6"
  top: "fc7"
  param {
    lr_mult: 1
    decay_mult: 1
  }
  param {
    lr_mult: 2
    decay_mult: 0
  }
  inner_product_param {
    num_output: 4096
    weight_filler {
      type: "gaussian"
      std: 0.005
    }
    bias_filler {
      type: "constant"
      value: 1
    }
  }
}
layer {
  name: "relu7"
  type: "ReLU"
  bottom: "fc7"
  top: "fc7"
}
layer {
  name: "drop7"
  type: "Dropout"
  bottom: "fc7"
  top: "fc7"
  dropout_param {
    dropout_ratio: 0.5
  }
}
layer {
  name: "fc8"
  type: "InnerProduct"
  bottom: "fc7"
  top: "fc8"
  param {
    lr_mult: 1
    decay_mult: 1
  }
  param {
    lr_mult: 2
    decay_mult: 0
  }
  inner_product_param {
    num_output: 43
    weight_filler {
      type: "gaussian"
      std: 0.01
    }
    bias_filler {
      type: "constant"
      value: 0
    }
  }
}
layer {
  name: "accuracy"
  type: "Accuracy"
  bottom: "fc8"
  bottom: "label"
  top: "accuracy"
  include {
    phase: TEST
  }
}
layer {
  name: "loss"
  type: "SoftmaxWithLoss"
  bottom: "fc8"
  bottom: "label"
  top: "loss"
}
I0521 16:50:18.602398 13296 layer_factory.hpp:77] Creating layer data
I0521 16:50:18.615732 13296 db_lmdb.cpp:35] Opened lmdb ./data/lmdb_test
I0521 16:50:18.615752 13296 net.cpp:86] Creating Layer data
I0521 16:50:18.615756 13296 net.cpp:382] data -> data
I0521 16:50:18.615761 13296 net.cpp:382] data -> label
I0521 16:50:18.615767 13296 data_transformer.cpp:25] Loading mean file from: ./data/mean_lmdb_test/gtsrb_test_mean.binaryproto
I0521 16:50:18.618820 13296 data_layer.cpp:45] output data size: 50,3,200,200
I0521 16:50:18.682467 13296 net.cpp:124] Setting up data
I0521 16:50:18.682502 13296 net.cpp:131] Top shape: 50 3 200 200 (6000000)
I0521 16:50:18.682505 13296 net.cpp:131] Top shape: 50 (50)
I0521 16:50:18.682507 13296 net.cpp:139] Memory required for data: 24000200
I0521 16:50:18.682514 13296 layer_factory.hpp:77] Creating layer label_data_1_split
I0521 16:50:18.682528 13296 net.cpp:86] Creating Layer label_data_1_split
I0521 16:50:18.682531 13296 net.cpp:408] label_data_1_split <- label
I0521 16:50:18.682540 13296 net.cpp:382] label_data_1_split -> label_data_1_split_0
I0521 16:50:18.682548 13296 net.cpp:382] label_data_1_split -> label_data_1_split_1
I0521 16:50:18.682600 13296 net.cpp:124] Setting up label_data_1_split
I0521 16:50:18.682603 13296 net.cpp:131] Top shape: 50 (50)
I0521 16:50:18.682605 13296 net.cpp:131] Top shape: 50 (50)
I0521 16:50:18.682607 13296 net.cpp:139] Memory required for data: 24000600
I0521 16:50:18.682610 13296 layer_factory.hpp:77] Creating layer conv1
I0521 16:50:18.682621 13296 net.cpp:86] Creating Layer conv1
I0521 16:50:18.682622 13296 net.cpp:408] conv1 <- data
I0521 16:50:18.682626 13296 net.cpp:382] conv1 -> conv1
I0521 16:50:18.687346 13296 net.cpp:124] Setting up conv1
I0521 16:50:18.687362 13296 net.cpp:131] Top shape: 50 96 48 48 (11059200)
I0521 16:50:18.687366 13296 net.cpp:139] Memory required for data: 68237400
I0521 16:50:18.687376 13296 layer_factory.hpp:77] Creating layer bn1
I0521 16:50:18.687381 13296 net.cpp:86] Creating Layer bn1
I0521 16:50:18.687386 13296 net.cpp:408] bn1 <- conv1
I0521 16:50:18.687389 13296 net.cpp:382] bn1 -> bn1
I0521 16:50:18.687525 13296 net.cpp:124] Setting up bn1
I0521 16:50:18.687530 13296 net.cpp:131] Top shape: 50 96 48 48 (11059200)
I0521 16:50:18.687533 13296 net.cpp:139] Memory required for data: 112474200
I0521 16:50:18.687539 13296 layer_factory.hpp:77] Creating layer relu1
I0521 16:50:18.687546 13296 net.cpp:86] Creating Layer relu1
I0521 16:50:18.687547 13296 net.cpp:408] relu1 <- bn1
I0521 16:50:18.687551 13296 net.cpp:369] relu1 -> bn1 (in-place)
I0521 16:50:18.695412 13296 net.cpp:124] Setting up relu1
I0521 16:50:18.695423 13296 net.cpp:131] Top shape: 50 96 48 48 (11059200)
I0521 16:50:18.695426 13296 net.cpp:139] Memory required for data: 156711000
I0521 16:50:18.695428 13296 layer_factory.hpp:77] Creating layer pool1
I0521 16:50:18.695439 13296 net.cpp:86] Creating Layer pool1
I0521 16:50:18.695441 13296 net.cpp:408] pool1 <- bn1
I0521 16:50:18.695444 13296 net.cpp:382] pool1 -> pool1
I0521 16:50:18.695482 13296 net.cpp:124] Setting up pool1
I0521 16:50:18.695487 13296 net.cpp:131] Top shape: 50 96 24 24 (2764800)
I0521 16:50:18.695488 13296 net.cpp:139] Memory required for data: 167770200
I0521 16:50:18.695518 13296 layer_factory.hpp:77] Creating layer conv2
I0521 16:50:18.695526 13296 net.cpp:86] Creating Layer conv2
I0521 16:50:18.695528 13296 net.cpp:408] conv2 <- pool1
I0521 16:50:18.695530 13296 net.cpp:382] conv2 -> conv2
I0521 16:50:18.705507 13296 net.cpp:124] Setting up conv2
I0521 16:50:18.705525 13296 net.cpp:131] Top shape: 50 256 24 24 (7372800)
I0521 16:50:18.705526 13296 net.cpp:139] Memory required for data: 197261400
I0521 16:50:18.705534 13296 layer_factory.hpp:77] Creating layer bn2
I0521 16:50:18.705543 13296 net.cpp:86] Creating Layer bn2
I0521 16:50:18.705546 13296 net.cpp:408] bn2 <- conv2
I0521 16:50:18.705552 13296 net.cpp:382] bn2 -> bn2
I0521 16:50:18.705677 13296 net.cpp:124] Setting up bn2
I0521 16:50:18.705682 13296 net.cpp:131] Top shape: 50 256 24 24 (7372800)
I0521 16:50:18.705683 13296 net.cpp:139] Memory required for data: 226752600
I0521 16:50:18.705688 13296 layer_factory.hpp:77] Creating layer relu2
I0521 16:50:18.705693 13296 net.cpp:86] Creating Layer relu2
I0521 16:50:18.705694 13296 net.cpp:408] relu2 <- bn2
I0521 16:50:18.705698 13296 net.cpp:369] relu2 -> bn2 (in-place)
I0521 16:50:18.705929 13296 net.cpp:124] Setting up relu2
I0521 16:50:18.705936 13296 net.cpp:131] Top shape: 50 256 24 24 (7372800)
I0521 16:50:18.705940 13296 net.cpp:139] Memory required for data: 256243800
I0521 16:50:18.705941 13296 layer_factory.hpp:77] Creating layer pool2
I0521 16:50:18.705945 13296 net.cpp:86] Creating Layer pool2
I0521 16:50:18.705947 13296 net.cpp:408] pool2 <- bn2
I0521 16:50:18.705950 13296 net.cpp:382] pool2 -> pool2
I0521 16:50:18.705971 13296 net.cpp:124] Setting up pool2
I0521 16:50:18.705976 13296 net.cpp:131] Top shape: 50 256 12 12 (1843200)
I0521 16:50:18.705977 13296 net.cpp:139] Memory required for data: 263616600
I0521 16:50:18.705978 13296 layer_factory.hpp:77] Creating layer conv3
I0521 16:50:18.705984 13296 net.cpp:86] Creating Layer conv3
I0521 16:50:18.705986 13296 net.cpp:408] conv3 <- pool2
I0521 16:50:18.705989 13296 net.cpp:382] conv3 -> conv3
I0521 16:50:18.725780 13296 net.cpp:124] Setting up conv3
I0521 16:50:18.725816 13296 net.cpp:131] Top shape: 50 384 12 12 (2764800)
I0521 16:50:18.725821 13296 net.cpp:139] Memory required for data: 274675800
I0521 16:50:18.725833 13296 layer_factory.hpp:77] Creating layer relu3
I0521 16:50:18.725852 13296 net.cpp:86] Creating Layer relu3
I0521 16:50:18.725857 13296 net.cpp:408] relu3 <- conv3
I0521 16:50:18.725867 13296 net.cpp:369] relu3 -> conv3 (in-place)
I0521 16:50:18.726732 13296 net.cpp:124] Setting up relu3
I0521 16:50:18.726744 13296 net.cpp:131] Top shape: 50 384 12 12 (2764800)
I0521 16:50:18.726747 13296 net.cpp:139] Memory required for data: 285735000
I0521 16:50:18.726750 13296 layer_factory.hpp:77] Creating layer conv4
I0521 16:50:18.726768 13296 net.cpp:86] Creating Layer conv4
I0521 16:50:18.726773 13296 net.cpp:408] conv4 <- conv3
I0521 16:50:18.726780 13296 net.cpp:382] conv4 -> conv4
I0521 16:50:18.738895 13296 net.cpp:124] Setting up conv4
I0521 16:50:18.738920 13296 net.cpp:131] Top shape: 50 384 12 12 (2764800)
I0521 16:50:18.738922 13296 net.cpp:139] Memory required for data: 296794200
I0521 16:50:18.738931 13296 layer_factory.hpp:77] Creating layer relu4
I0521 16:50:18.738940 13296 net.cpp:86] Creating Layer relu4
I0521 16:50:18.738943 13296 net.cpp:408] relu4 <- conv4
I0521 16:50:18.738948 13296 net.cpp:369] relu4 -> conv4 (in-place)
I0521 16:50:18.739557 13296 net.cpp:124] Setting up relu4
I0521 16:50:18.739565 13296 net.cpp:131] Top shape: 50 384 12 12 (2764800)
I0521 16:50:18.739567 13296 net.cpp:139] Memory required for data: 307853400
I0521 16:50:18.739569 13296 layer_factory.hpp:77] Creating layer conv5
I0521 16:50:18.739583 13296 net.cpp:86] Creating Layer conv5
I0521 16:50:18.739584 13296 net.cpp:408] conv5 <- conv4
I0521 16:50:18.739590 13296 net.cpp:382] conv5 -> conv5
I0521 16:50:18.750533 13296 net.cpp:124] Setting up conv5
I0521 16:50:18.750571 13296 net.cpp:131] Top shape: 50 256 12 12 (1843200)
I0521 16:50:18.750574 13296 net.cpp:139] Memory required for data: 315226200
I0521 16:50:18.750628 13296 layer_factory.hpp:77] Creating layer relu5
I0521 16:50:18.750638 13296 net.cpp:86] Creating Layer relu5
I0521 16:50:18.750641 13296 net.cpp:408] relu5 <- conv5
I0521 16:50:18.750648 13296 net.cpp:369] relu5 -> conv5 (in-place)
I0521 16:50:18.751166 13296 net.cpp:124] Setting up relu5
I0521 16:50:18.751175 13296 net.cpp:131] Top shape: 50 256 12 12 (1843200)
I0521 16:50:18.751178 13296 net.cpp:139] Memory required for data: 322599000
I0521 16:50:18.751180 13296 layer_factory.hpp:77] Creating layer pool5
I0521 16:50:18.751193 13296 net.cpp:86] Creating Layer pool5
I0521 16:50:18.751194 13296 net.cpp:408] pool5 <- conv5
I0521 16:50:18.751199 13296 net.cpp:382] pool5 -> pool5
I0521 16:50:18.751228 13296 net.cpp:124] Setting up pool5
I0521 16:50:18.751232 13296 net.cpp:131] Top shape: 50 256 6 6 (460800)
I0521 16:50:18.751235 13296 net.cpp:139] Memory required for data: 324442200
I0521 16:50:18.751236 13296 layer_factory.hpp:77] Creating layer fc6
I0521 16:50:18.751245 13296 net.cpp:86] Creating Layer fc6
I0521 16:50:18.751246 13296 net.cpp:408] fc6 <- pool5
I0521 16:50:18.751250 13296 net.cpp:382] fc6 -> fc6
I0521 16:50:19.021070 13296 net.cpp:124] Setting up fc6
I0521 16:50:19.021098 13296 net.cpp:131] Top shape: 50 4096 (204800)
I0521 16:50:19.021101 13296 net.cpp:139] Memory required for data: 325261400
I0521 16:50:19.021118 13296 layer_factory.hpp:77] Creating layer relu6
I0521 16:50:19.021128 13296 net.cpp:86] Creating Layer relu6
I0521 16:50:19.021131 13296 net.cpp:408] relu6 <- fc6
I0521 16:50:19.021136 13296 net.cpp:369] relu6 -> fc6 (in-place)
I0521 16:50:19.021927 13296 net.cpp:124] Setting up relu6
I0521 16:50:19.021939 13296 net.cpp:131] Top shape: 50 4096 (204800)
I0521 16:50:19.021940 13296 net.cpp:139] Memory required for data: 326080600
I0521 16:50:19.021942 13296 layer_factory.hpp:77] Creating layer drop6
I0521 16:50:19.021948 13296 net.cpp:86] Creating Layer drop6
I0521 16:50:19.021950 13296 net.cpp:408] drop6 <- fc6
I0521 16:50:19.021953 13296 net.cpp:369] drop6 -> fc6 (in-place)
I0521 16:50:19.021971 13296 net.cpp:124] Setting up drop6
I0521 16:50:19.021975 13296 net.cpp:131] Top shape: 50 4096 (204800)
I0521 16:50:19.021975 13296 net.cpp:139] Memory required for data: 326899800
I0521 16:50:19.021977 13296 layer_factory.hpp:77] Creating layer fc7
I0521 16:50:19.021983 13296 net.cpp:86] Creating Layer fc7
I0521 16:50:19.021986 13296 net.cpp:408] fc7 <- fc6
I0521 16:50:19.021987 13296 net.cpp:382] fc7 -> fc7
I0521 16:50:19.139508 13296 net.cpp:124] Setting up fc7
I0521 16:50:19.139535 13296 net.cpp:131] Top shape: 50 4096 (204800)
I0521 16:50:19.139539 13296 net.cpp:139] Memory required for data: 327719000
I0521 16:50:19.139546 13296 layer_factory.hpp:77] Creating layer relu7
I0521 16:50:19.139555 13296 net.cpp:86] Creating Layer relu7
I0521 16:50:19.139557 13296 net.cpp:408] relu7 <- fc7
I0521 16:50:19.139561 13296 net.cpp:369] relu7 -> fc7 (in-place)
I0521 16:50:19.139998 13296 net.cpp:124] Setting up relu7
I0521 16:50:19.140005 13296 net.cpp:131] Top shape: 50 4096 (204800)
I0521 16:50:19.140007 13296 net.cpp:139] Memory required for data: 328538200
I0521 16:50:19.140008 13296 layer_factory.hpp:77] Creating layer drop7
I0521 16:50:19.140014 13296 net.cpp:86] Creating Layer drop7
I0521 16:50:19.140015 13296 net.cpp:408] drop7 <- fc7
I0521 16:50:19.140018 13296 net.cpp:369] drop7 -> fc7 (in-place)
I0521 16:50:19.140035 13296 net.cpp:124] Setting up drop7
I0521 16:50:19.140038 13296 net.cpp:131] Top shape: 50 4096 (204800)
I0521 16:50:19.140039 13296 net.cpp:139] Memory required for data: 329357400
I0521 16:50:19.140040 13296 layer_factory.hpp:77] Creating layer fc8
I0521 16:50:19.140045 13296 net.cpp:86] Creating Layer fc8
I0521 16:50:19.140048 13296 net.cpp:408] fc8 <- fc7
I0521 16:50:19.140050 13296 net.cpp:382] fc8 -> fc8
I0521 16:50:19.141124 13296 net.cpp:124] Setting up fc8
I0521 16:50:19.141129 13296 net.cpp:131] Top shape: 50 43 (2150)
I0521 16:50:19.141130 13296 net.cpp:139] Memory required for data: 329366000
I0521 16:50:19.141134 13296 layer_factory.hpp:77] Creating layer fc8_fc8_0_split
I0521 16:50:19.141165 13296 net.cpp:86] Creating Layer fc8_fc8_0_split
I0521 16:50:19.141165 13296 net.cpp:408] fc8_fc8_0_split <- fc8
I0521 16:50:19.141170 13296 net.cpp:382] fc8_fc8_0_split -> fc8_fc8_0_split_0
I0521 16:50:19.141173 13296 net.cpp:382] fc8_fc8_0_split -> fc8_fc8_0_split_1
I0521 16:50:19.141197 13296 net.cpp:124] Setting up fc8_fc8_0_split
I0521 16:50:19.141201 13296 net.cpp:131] Top shape: 50 43 (2150)
I0521 16:50:19.141202 13296 net.cpp:131] Top shape: 50 43 (2150)
I0521 16:50:19.141204 13296 net.cpp:139] Memory required for data: 329383200
I0521 16:50:19.141206 13296 layer_factory.hpp:77] Creating layer accuracy
I0521 16:50:19.141211 13296 net.cpp:86] Creating Layer accuracy
I0521 16:50:19.141212 13296 net.cpp:408] accuracy <- fc8_fc8_0_split_0
I0521 16:50:19.141214 13296 net.cpp:408] accuracy <- label_data_1_split_0
I0521 16:50:19.141218 13296 net.cpp:382] accuracy -> accuracy
…
