…
I0519 10:39:48.245290 22564 net.cpp:296] The NetState phase (0) differed from the phase (1) specified by a rule in layer accuracy
I0519 10:39:48.245395 22564 net.cpp:53] Initializing net from parameters: 
name: "AlexNet"
state {
  phase: TRAIN
  level: 0
  stage: ""
}
layer {
  name: "data"
  type: "Data"
  top: "data"
  top: "label"
  include {
    phase: TRAIN
  }
  transform_param {
    mirror: true
    crop_size: 200
    mean_file: "./data/mean_lmdb_train/gtsrb_train_mean.binaryproto"
  }
  data_param {
    source: "./data/lmdb_train"
    batch_size: 256
    backend: LMDB
  }
}
layer {
  name: "conv1"
  type: "Convolution"
  bottom: "data"
  top: "conv1"
  param {
    lr_mult: 1
    decay_mult: 1
  }
  param {
    lr_mult: 2
    decay_mult: 0
  }
  convolution_param {
    num_output: 96
    kernel_size: 11
    stride: 4
    weight_filler {
      type: "gaussian"
      std: 0.01
    }
    bias_filler {
      type: "constant"
      value: 0
    }
  }
}
layer {
  name: "relu1"
  type: "ReLU"
  bottom: "conv1"
  top: "conv1"
}
layer {
  name: "norm1"
  type: "LRN"
  bottom: "conv1"
  top: "norm1"
  lrn_param {
    local_size: 5
    alpha: 0.0001
    beta: 0.75
  }
}
layer {
  name: "pool1"
  type: "Pooling"
  bottom: "norm1"
  top: "pool1"
  pooling_param {
    pool: MAX
    kernel_size: 3
    stride: 2
  }
}
layer {
  name: "conv2"
  type: "Convolution"
  bottom: "pool1"
  top: "conv2"
  param {
    lr_mult: 1
    decay_mult: 1
  }
  param {
    lr_mult: 2
    decay_mult: 0
  }
  convolution_param {
    num_output: 256
    pad: 2
    kernel_size: 5
    group: 2
    weight_filler {
      type: "gaussian"
      std: 0.01
    }
    bias_filler {
      type: "constant"
      value: 0.1
    }
  }
}
layer {
  name: "relu2"
  type: "ReLU"
  bottom: "conv2"
  top: "conv2"
}
layer {
  name: "norm2"
  type: "LRN"
  bottom: "conv2"
  top: "norm2"
  lrn_param {
    local_size: 5
    alpha: 0.0001
    beta: 0.75
  }
}
layer {
  name: "pool2"
  type: "Pooling"
  bottom: "norm2"
  top: "pool2"
  pooling_param {
    pool: MAX
    kernel_size: 3
    stride: 2
  }
}
layer {
  name: "conv3"
  type: "Convolution"
  bottom: "pool2"
  top: "conv3"
  param {
    lr_mult: 1
    decay_mult: 1
  }
  param {
    lr_mult: 2
    decay_mult: 0
  }
  convolution_param {
    num_output: 384
    pad: 1
    kernel_size: 3
    weight_filler {
      type: "gaussian"
      std: 0.01
    }
    bias_filler {
      type: "constant"
      value: 0
    }
  }
}
layer {
  name: "relu3"
  type: "ReLU"
  bottom: "conv3"
  top: "conv3"
}
layer {
  name: "conv4"
  type: "Convolution"
  bottom: "conv3"
  top: "conv4"
  param {
    lr_mult: 1
    decay_mult: 1
  }
  param {
    lr_mult: 2
    decay_mult: 0
  }
  convolution_param {
    num_output: 384
    pad: 1
    kernel_size: 3
    group: 2
    weight_filler {
      type: "gaussian"
      std: 0.01
    }
    bias_filler {
      type: "constant"
      value: 0.1
    }
  }
}
layer {
  name: "relu4"
  type: "ReLU"
  bottom: "conv4"
  top: "conv4"
}
layer {
  name: "conv5"
  type: "Convolution"
  bottom: "conv4"
  top: "conv5"
  param {
    lr_mult: 1
    decay_mult: 1
  }
  param {
    lr_mult: 2
    decay_mult: 0
  }
  convolution_param {
    num_output: 256
    pad: 1
    kernel_size: 3
    group: 2
    weight_filler {
      type: "gaussian"
      std: 0.01
    }
    bias_filler {
      type: "constant"
      value: 0.1
    }
  }
}
layer {
  name: "relu5"
  type: "ReLU"
  bottom: "conv5"
  top: "conv5"
}
layer {
  name: "pool5"
  type: "Pooling"
  bottom: "conv5"
  top: "pool5"
  pooling_param {
    pool: MAX
    kernel_size: 3
    stride: 2
  }
}
layer {
  name: "fc6"
  type: "InnerProduct"
  bottom: "pool5"
  top: "fc6"
  param {
    lr_mult: 1
    decay_mult: 1
  }
  param {
    lr_mult: 2
    decay_mult: 0
  }
  inner_product_param {
    num_output: 4096
    weight_filler {
      type: "gaussian"
      std: 0.005
    }
    bias_filler {
      type: "constant"
      value: 0.1
    }
  }
}
layer {
  name: "relu6"
  type: "ReLU"
  bottom: "fc6"
  top: "fc6"
}
layer {
  name: "drop6"
  type: "Dropout"
  bottom: "fc6"
  top: "fc6"
  dropout_param {
    dropout_ratio: 0.5
  }
}
layer {
  name: "fc7"
  type: "InnerProduct"
  bottom: "fc6"
  top: "fc7"
  param {
    lr_mult: 1
    decay_mult: 1
  }
  param {
    lr_mult: 2
    decay_mult: 0
  }
  inner_product_param {
    num_output: 4096
    weight_filler {
      type: "gaussian"
      std: 0.005
    }
    bias_filler {
      type: "constant"
      value: 0.1
    }
  }
}
layer {
  name: "relu7"
  type: "ReLU"
  bottom: "fc7"
  top: "fc7"
}
layer {
  name: "drop7"
  type: "Dropout"
  bottom: "fc7"
  top: "fc7"
  dropout_param {
    dropout_ratio: 0.5
  }
}
layer {
  name: "fc8"
  type: "InnerProduct"
  bottom: "fc7"
  top: "fc8"
  param {
    lr_mult: 1
    decay_mult: 1
  }
  param {
    lr_mult: 2
    decay_mult: 0
  }
  inner_product_param {
    num_output: 43
    weight_filler {
      type: "gaussian"
      std: 0.01
    }
    bias_filler {
      type: "constant"
      value: 0
    }
  }
}
layer {
  name: "loss"
  type: "SoftmaxWithLoss"
  bottom: "fc8"
  bottom: "label"
  top: "loss"
}
I0519 10:39:48.245476 22564 layer_factory.hpp:77] Creating layer data
I0519 10:39:48.245569 22564 db_lmdb.cpp:35] Opened lmdb ./data/lmdb_train
I0519 10:39:48.245595 22564 net.cpp:86] Creating Layer data
I0519 10:39:48.245601 22564 net.cpp:382] data -> data
I0519 10:39:48.245620 22564 net.cpp:382] data -> label
I0519 10:39:48.245627 22564 data_transformer.cpp:25] Loading mean file from: ./data/mean_lmdb_train/gtsrb_train_mean.binaryproto
I0519 10:39:48.247457 22564 data_layer.cpp:45] output data size: 256,3,200,200
I0519 10:39:48.589021 22564 net.cpp:124] Setting up data
I0519 10:39:48.589090 22564 net.cpp:131] Top shape: 256 3 200 200 (30720000)
I0519 10:39:48.589094 22564 net.cpp:131] Top shape: 256 (256)
I0519 10:39:48.589097 22564 net.cpp:139] Memory required for data: 122881024
I0519 10:39:48.589107 22564 layer_factory.hpp:77] Creating layer conv1
I0519 10:39:48.589143 22564 net.cpp:86] Creating Layer conv1
I0519 10:39:48.589149 22564 net.cpp:408] conv1 <- data
I0519 10:39:48.589165 22564 net.cpp:382] conv1 -> conv1
I0519 10:39:51.181864 22564 net.cpp:124] Setting up conv1
I0519 10:39:51.181895 22564 net.cpp:131] Top shape: 256 96 48 48 (56623104)
I0519 10:39:51.181897 22564 net.cpp:139] Memory required for data: 349373440
I0519 10:39:51.181917 22564 layer_factory.hpp:77] Creating layer relu1
I0519 10:39:51.181927 22564 net.cpp:86] Creating Layer relu1
I0519 10:39:51.181929 22564 net.cpp:408] relu1 <- conv1
I0519 10:39:51.181933 22564 net.cpp:369] relu1 -> conv1 (in-place)
I0519 10:39:51.183558 22564 net.cpp:124] Setting up relu1
I0519 10:39:51.183567 22564 net.cpp:131] Top shape: 256 96 48 48 (56623104)
I0519 10:39:51.183568 22564 net.cpp:139] Memory required for data: 575865856
I0519 10:39:51.183570 22564 layer_factory.hpp:77] Creating layer norm1
I0519 10:39:51.183579 22564 net.cpp:86] Creating Layer norm1
I0519 10:39:51.183580 22564 net.cpp:408] norm1 <- conv1
I0519 10:39:51.183584 22564 net.cpp:382] norm1 -> norm1
I0519 10:39:51.184036 22564 net.cpp:124] Setting up norm1
I0519 10:39:51.184043 22564 net.cpp:131] Top shape: 256 96 48 48 (56623104)
I0519 10:39:51.184046 22564 net.cpp:139] Memory required for data: 802358272
I0519 10:39:51.184047 22564 layer_factory.hpp:77] Creating layer pool1
I0519 10:39:51.184052 22564 net.cpp:86] Creating Layer pool1
I0519 10:39:51.184075 22564 net.cpp:408] pool1 <- norm1
I0519 10:39:51.184078 22564 net.cpp:382] pool1 -> pool1
I0519 10:39:51.184104 22564 net.cpp:124] Setting up pool1
I0519 10:39:51.184108 22564 net.cpp:131] Top shape: 256 96 24 24 (14155776)
I0519 10:39:51.184109 22564 net.cpp:139] Memory required for data: 858981376
I0519 10:39:51.184111 22564 layer_factory.hpp:77] Creating layer conv2
I0519 10:39:51.184118 22564 net.cpp:86] Creating Layer conv2
I0519 10:39:51.184120 22564 net.cpp:408] conv2 <- pool1
I0519 10:39:51.184123 22564 net.cpp:382] conv2 -> conv2
I0519 10:39:51.195422 22564 net.cpp:124] Setting up conv2
I0519 10:39:51.195433 22564 net.cpp:131] Top shape: 256 256 24 24 (37748736)
I0519 10:39:51.195436 22564 net.cpp:139] Memory required for data: 1009976320
I0519 10:39:51.195441 22564 layer_factory.hpp:77] Creating layer relu2
I0519 10:39:51.195444 22564 net.cpp:86] Creating Layer relu2
I0519 10:39:51.195446 22564 net.cpp:408] relu2 <- conv2
I0519 10:39:51.195449 22564 net.cpp:369] relu2 -> conv2 (in-place)
I0519 10:39:51.195878 22564 net.cpp:124] Setting up relu2
I0519 10:39:51.195886 22564 net.cpp:131] Top shape: 256 256 24 24 (37748736)
I0519 10:39:51.195888 22564 net.cpp:139] Memory required for data: 1160971264
I0519 10:39:51.195889 22564 layer_factory.hpp:77] Creating layer norm2
I0519 10:39:51.195894 22564 net.cpp:86] Creating Layer norm2
I0519 10:39:51.195895 22564 net.cpp:408] norm2 <- conv2
I0519 10:39:51.195899 22564 net.cpp:382] norm2 -> norm2
I0519 10:39:51.196113 22564 net.cpp:124] Setting up norm2
I0519 10:39:51.196118 22564 net.cpp:131] Top shape: 256 256 24 24 (37748736)
I0519 10:39:51.196120 22564 net.cpp:139] Memory required for data: 1311966208
I0519 10:39:51.196122 22564 layer_factory.hpp:77] Creating layer pool2
I0519 10:39:51.196126 22564 net.cpp:86] Creating Layer pool2
I0519 10:39:51.196128 22564 net.cpp:408] pool2 <- norm2
I0519 10:39:51.196131 22564 net.cpp:382] pool2 -> pool2
I0519 10:39:51.196148 22564 net.cpp:124] Setting up pool2
I0519 10:39:51.196151 22564 net.cpp:131] Top shape: 256 256 12 12 (9437184)
I0519 10:39:51.196152 22564 net.cpp:139] Memory required for data: 1349714944
I0519 10:39:51.196154 22564 layer_factory.hpp:77] Creating layer conv3
I0519 10:39:51.196161 22564 net.cpp:86] Creating Layer conv3
I0519 10:39:51.196161 22564 net.cpp:408] conv3 <- pool2
I0519 10:39:51.196164 22564 net.cpp:382] conv3 -> conv3
I0519 10:39:51.204576 22564 net.cpp:124] Setting up conv3
I0519 10:39:51.204586 22564 net.cpp:131] Top shape: 256 384 12 12 (14155776)
I0519 10:39:51.204587 22564 net.cpp:139] Memory required for data: 1406338048
I0519 10:39:51.204592 22564 layer_factory.hpp:77] Creating layer relu3
I0519 10:39:51.204596 22564 net.cpp:86] Creating Layer relu3
I0519 10:39:51.204597 22564 net.cpp:408] relu3 <- conv3
I0519 10:39:51.204602 22564 net.cpp:369] relu3 -> conv3 (in-place)
I0519 10:39:51.205037 22564 net.cpp:124] Setting up relu3
I0519 10:39:51.205044 22564 net.cpp:131] Top shape: 256 384 12 12 (14155776)
I0519 10:39:51.205046 22564 net.cpp:139] Memory required for data: 1462961152
I0519 10:39:51.205047 22564 layer_factory.hpp:77] Creating layer conv4
I0519 10:39:51.205054 22564 net.cpp:86] Creating Layer conv4
I0519 10:39:51.205055 22564 net.cpp:408] conv4 <- conv3
I0519 10:39:51.205058 22564 net.cpp:382] conv4 -> conv4
I0519 10:39:51.216315 22564 net.cpp:124] Setting up conv4
I0519 10:39:51.216327 22564 net.cpp:131] Top shape: 256 384 12 12 (14155776)
I0519 10:39:51.216329 22564 net.cpp:139] Memory required for data: 1519584256
I0519 10:39:51.216336 22564 layer_factory.hpp:77] Creating layer relu4
I0519 10:39:51.216341 22564 net.cpp:86] Creating Layer relu4
I0519 10:39:51.216342 22564 net.cpp:408] relu4 <- conv4
I0519 10:39:51.216346 22564 net.cpp:369] relu4 -> conv4 (in-place)
I0519 10:39:51.218245 22564 net.cpp:124] Setting up relu4
I0519 10:39:51.218253 22564 net.cpp:131] Top shape: 256 384 12 12 (14155776)
I0519 10:39:51.218255 22564 net.cpp:139] Memory required for data: 1576207360
I0519 10:39:51.218257 22564 layer_factory.hpp:77] Creating layer conv5
I0519 10:39:51.218281 22564 net.cpp:86] Creating Layer conv5
I0519 10:39:51.218282 22564 net.cpp:408] conv5 <- conv4
I0519 10:39:51.218286 22564 net.cpp:382] conv5 -> conv5
I0519 10:39:51.229621 22564 net.cpp:124] Setting up conv5
I0519 10:39:51.229632 22564 net.cpp:131] Top shape: 256 256 12 12 (9437184)
I0519 10:39:51.229635 22564 net.cpp:139] Memory required for data: 1613956096
I0519 10:39:51.229641 22564 layer_factory.hpp:77] Creating layer relu5
I0519 10:39:51.229645 22564 net.cpp:86] Creating Layer relu5
I0519 10:39:51.229647 22564 net.cpp:408] relu5 <- conv5
I0519 10:39:51.229650 22564 net.cpp:369] relu5 -> conv5 (in-place)
I0519 10:39:51.231515 22564 net.cpp:124] Setting up relu5
I0519 10:39:51.231525 22564 net.cpp:131] Top shape: 256 256 12 12 (9437184)
I0519 10:39:51.231528 22564 net.cpp:139] Memory required for data: 1651704832
I0519 10:39:51.231529 22564 layer_factory.hpp:77] Creating layer pool5
I0519 10:39:51.231535 22564 net.cpp:86] Creating Layer pool5
I0519 10:39:51.231536 22564 net.cpp:408] pool5 <- conv5
I0519 10:39:51.231539 22564 net.cpp:382] pool5 -> pool5
I0519 10:39:51.231564 22564 net.cpp:124] Setting up pool5
I0519 10:39:51.231566 22564 net.cpp:131] Top shape: 256 256 6 6 (2359296)
I0519 10:39:51.231568 22564 net.cpp:139] Memory required for data: 1661142016
I0519 10:39:51.231570 22564 layer_factory.hpp:77] Creating layer fc6
I0519 10:39:51.231575 22564 net.cpp:86] Creating Layer fc6
I0519 10:39:51.231577 22564 net.cpp:408] fc6 <- pool5
I0519 10:39:51.231580 22564 net.cpp:382] fc6 -> fc6
I0519 10:39:51.490922 22564 net.cpp:124] Setting up fc6
I0519 10:39:51.490964 22564 net.cpp:131] Top shape: 256 4096 (1048576)
I0519 10:39:51.490967 22564 net.cpp:139] Memory required for data: 1665336320
I0519 10:39:51.490976 22564 layer_factory.hpp:77] Creating layer relu6
I0519 10:39:51.490985 22564 net.cpp:86] Creating Layer relu6
I0519 10:39:51.490988 22564 net.cpp:408] relu6 <- fc6
I0519 10:39:51.490993 22564 net.cpp:369] relu6 -> fc6 (in-place)
I0519 10:39:51.491757 22564 net.cpp:124] Setting up relu6
I0519 10:39:51.491770 22564 net.cpp:131] Top shape: 256 4096 (1048576)
I0519 10:39:51.491771 22564 net.cpp:139] Memory required for data: 1669530624
I0519 10:39:51.491773 22564 layer_factory.hpp:77] Creating layer drop6
I0519 10:39:51.491780 22564 net.cpp:86] Creating Layer drop6
I0519 10:39:51.491780 22564 net.cpp:408] drop6 <- fc6
I0519 10:39:51.491784 22564 net.cpp:369] drop6 -> fc6 (in-place)
I0519 10:39:51.491804 22564 net.cpp:124] Setting up drop6
I0519 10:39:51.491806 22564 net.cpp:131] Top shape: 256 4096 (1048576)
I0519 10:39:51.491808 22564 net.cpp:139] Memory required for data: 1673724928
I0519 10:39:51.491811 22564 layer_factory.hpp:77] Creating layer fc7
I0519 10:39:51.491816 22564 net.cpp:86] Creating Layer fc7
I0519 10:39:51.491817 22564 net.cpp:408] fc7 <- fc6
I0519 10:39:51.491819 22564 net.cpp:382] fc7 -> fc7
I0519 10:39:51.608155 22564 net.cpp:124] Setting up fc7
I0519 10:39:51.608247 22564 net.cpp:131] Top shape: 256 4096 (1048576)
I0519 10:39:51.608255 22564 net.cpp:139] Memory required for data: 1677919232
I0519 10:39:51.608284 22564 layer_factory.hpp:77] Creating layer relu7
I0519 10:39:51.608312 22564 net.cpp:86] Creating Layer relu7
I0519 10:39:51.608319 22564 net.cpp:408] relu7 <- fc7
I0519 10:39:51.608327 22564 net.cpp:369] relu7 -> fc7 (in-place)
I0519 10:39:51.609095 22564 net.cpp:124] Setting up relu7
I0519 10:39:51.609118 22564 net.cpp:131] Top shape: 256 4096 (1048576)
I0519 10:39:51.609120 22564 net.cpp:139] Memory required for data: 1682113536
I0519 10:39:51.609124 22564 layer_factory.hpp:77] Creating layer drop7
I0519 10:39:51.609138 22564 net.cpp:86] Creating Layer drop7
I0519 10:39:51.609140 22564 net.cpp:408] drop7 <- fc7
I0519 10:39:51.609146 22564 net.cpp:369] drop7 -> fc7 (in-place)
I0519 10:39:51.609174 22564 net.cpp:124] Setting up drop7
I0519 10:39:51.609177 22564 net.cpp:131] Top shape: 256 4096 (1048576)
I0519 10:39:51.609179 22564 net.cpp:139] Memory required for data: 1686307840
I0519 10:39:51.609181 22564 layer_factory.hpp:77] Creating layer fc8
I0519 10:39:51.609256 22564 net.cpp:86] Creating Layer fc8
I0519 10:39:51.609258 22564 net.cpp:408] fc8 <- fc7
I0519 10:39:51.609262 22564 net.cpp:382] fc8 -> fc8
I0519 10:39:51.612059 22564 net.cpp:124] Setting up fc8
I0519 10:39:51.612076 22564 net.cpp:131] Top shape: 256 43 (11008)
I0519 10:39:51.612076 22564 net.cpp:139] Memory required for data: 1686351872
I0519 10:39:51.612082 22564 layer_factory.hpp:77] Creating layer loss
I0519 10:39:51.612088 22564 net.cpp:86] Creating Layer loss
I0519 10:39:51.612090 22564 net.cpp:408] loss <- fc8
I0519 10:39:51.612092 22564 net.cpp:408] loss <- label
I0519 10:39:51.612110 22564 net.cpp:382] loss -> loss
I0519 10:39:51.612136 22564 layer_factory.hpp:77] Creating layer loss
…
I0519 10:39:51.613343 22564 net.cpp:296] The NetState phase (1) differed from the phase (0) specified by a rule in layer data
I0519 10:39:51.613474 22564 net.cpp:53] Initializing net from parameters: 
name: "AlexNet"
state {
  phase: TEST
}
layer {
  name: "data"
  type: "Data"
  top: "data"
  top: "label"
  include {
    phase: TEST
  }
  transform_param {
    mirror: false
    crop_size: 200
    mean_file: "./data/mean_lmdb_test/gtsrb_test_mean.binaryproto"
  }
  data_param {
    source: "./data/lmdb_test"
    batch_size: 50
    backend: LMDB
  }
}
layer {
  name: "conv1"
  type: "Convolution"
  bottom: "data"
  top: "conv1"
  param {
    lr_mult: 1
    decay_mult: 1
  }
  param {
    lr_mult: 2
    decay_mult: 0
  }
  convolution_param {
    num_output: 96
    kernel_size: 11
    stride: 4
    weight_filler {
      type: "gaussian"
      std: 0.01
    }
    bias_filler {
      type: "constant"
      value: 0
    }
  }
}
layer {
  name: "relu1"
  type: "ReLU"
  bottom: "conv1"
  top: "conv1"
}
layer {
  name: "norm1"
  type: "LRN"
  bottom: "conv1"
  top: "norm1"
  lrn_param {
    local_size: 5
    alpha: 0.0001
    beta: 0.75
  }
}
layer {
  name: "pool1"
  type: "Pooling"
  bottom: "norm1"
  top: "pool1"
  pooling_param {
    pool: MAX
    kernel_size: 3
    stride: 2
  }
}
layer {
  name: "conv2"
  type: "Convolution"
  bottom: "pool1"
  top: "conv2"
  param {
    lr_mult: 1
    decay_mult: 1
  }
  param {
    lr_mult: 2
    decay_mult: 0
  }
  convolution_param {
    num_output: 256
    pad: 2
    kernel_size: 5
    group: 2
    weight_filler {
      type: "gaussian"
      std: 0.01
    }
    bias_filler {
      type: "constant"
      value: 0.1
    }
  }
}
layer {
  name: "relu2"
  type: "ReLU"
  bottom: "conv2"
  top: "conv2"
}
layer {
  name: "norm2"
  type: "LRN"
  bottom: "conv2"
  top: "norm2"
  lrn_param {
    local_size: 5
    alpha: 0.0001
    beta: 0.75
  }
}
layer {
  name: "pool2"
  type: "Pooling"
  bottom: "norm2"
  top: "pool2"
  pooling_param {
    pool: MAX
    kernel_size: 3
    stride: 2
  }
}
layer {
  name: "conv3"
  type: "Convolution"
  bottom: "pool2"
  top: "conv3"
  param {
    lr_mult: 1
    decay_mult: 1
  }
  param {
    lr_mult: 2
    decay_mult: 0
  }
  convolution_param {
    num_output: 384
    pad: 1
    kernel_size: 3
    weight_filler {
      type: "gaussian"
      std: 0.01
    }
    bias_filler {
      type: "constant"
      value: 0
    }
  }
}
layer {
  name: "relu3"
  type: "ReLU"
  bottom: "conv3"
  top: "conv3"
}
layer {
  name: "conv4"
  type: "Convolution"
  bottom: "conv3"
  top: "conv4"
  param {
    lr_mult: 1
    decay_mult: 1
  }
  param {
    lr_mult: 2
    decay_mult: 0
  }
  convolution_param {
    num_output: 384
    pad: 1
    kernel_size: 3
    group: 2
    weight_filler {
      type: "gaussian"
      std: 0.01
    }
    bias_filler {
      type: "constant"
      value: 0.1
    }
  }
}
layer {
  name: "relu4"
  type: "ReLU"
  bottom: "conv4"
  top: "conv4"
}
layer {
  name: "conv5"
  type: "Convolution"
  bottom: "conv4"
  top: "conv5"
  param {
    lr_mult: 1
    decay_mult: 1
  }
  param {
    lr_mult: 2
    decay_mult: 0
  }
  convolution_param {
    num_output: 256
    pad: 1
    kernel_size: 3
    group: 2
    weight_filler {
      type: "gaussian"
      std: 0.01
    }
    bias_filler {
      type: "constant"
      value: 0.1
    }
  }
}
layer {
  name: "relu5"
  type: "ReLU"
  bottom: "conv5"
  top: "conv5"
}
layer {
  name: "pool5"
  type: "Pooling"
  bottom: "conv5"
  top: "pool5"
  pooling_param {
    pool: MAX
    kernel_size: 3
    stride: 2
  }
}
layer {
  name: "fc6"
  type: "InnerProduct"
  bottom: "pool5"
  top: "fc6"
  param {
    lr_mult: 1
    decay_mult: 1
  }
  param {
    lr_mult: 2
    decay_mult: 0
  }
  inner_product_param {
    num_output: 4096
    weight_filler {
      type: "gaussian"
      std: 0.005
    }
    bias_filler {
      type: "constant"
      value: 0.1
    }
  }
}
layer {
  name: "relu6"
  type: "ReLU"
  bottom: "fc6"
  top: "fc6"
}
layer {
  name: "drop6"
  type: "Dropout"
  bottom: "fc6"
  top: "fc6"
  dropout_param {
    dropout_ratio: 0.5
  }
}
layer {
  name: "fc7"
  type: "InnerProduct"
  bottom: "fc6"
  top: "fc7"
  param {
    lr_mult: 1
    decay_mult: 1
  }
  param {
    lr_mult: 2
    decay_mult: 0
  }
  inner_product_param {
    num_output: 4096
    weight_filler {
      type: "gaussian"
      std: 0.005
    }
    bias_filler {
      type: "constant"
      value: 0.1
    }
  }
}
layer {
  name: "relu7"
  type: "ReLU"
  bottom: "fc7"
  top: "fc7"
}
layer {
  name: "drop7"
  type: "Dropout"
  bottom: "fc7"
  top: "fc7"
  dropout_param {
    dropout_ratio: 0.5
  }
}
layer {
  name: "fc8"
  type: "InnerProduct"
  bottom: "fc7"
  top: "fc8"
  param {
    lr_mult: 1
    decay_mult: 1
  }
  param {
    lr_mult: 2
    decay_mult: 0
  }
  inner_product_param {
    num_output: 43
    weight_filler {
      type: "gaussian"
      std: 0.01
    }
    bias_filler {
      type: "constant"
      value: 0
    }
  }
}
layer {
  name: "accuracy"
  type: "Accuracy"
  bottom: "fc8"
  bottom: "label"
  top: "accuracy"
  include {
    phase: TEST
  }
}
layer {
  name: "loss"
  type: "SoftmaxWithLoss"
  bottom: "fc8"
  bottom: "label"
  top: "loss"
}
I0519 10:39:51.613564 22564 layer_factory.hpp:77] Creating layer data
I0519 10:39:51.613683 22564 db_lmdb.cpp:35] Opened lmdb ./data/lmdb_test
I0519 10:39:51.613709 22564 net.cpp:86] Creating Layer data
I0519 10:39:51.613715 22564 net.cpp:382] data -> data
I0519 10:39:51.613721 22564 net.cpp:382] data -> label
I0519 10:39:51.613729 22564 data_transformer.cpp:25] Loading mean file from: ./data/mean_lmdb_test/gtsrb_test_mean.binaryproto
I0519 10:39:51.614639 22564 data_layer.cpp:45] output data size: 50,3,200,200
I0519 10:39:51.671442 22564 net.cpp:124] Setting up data
I0519 10:39:51.671494 22564 net.cpp:131] Top shape: 50 3 200 200 (6000000)
I0519 10:39:51.671497 22564 net.cpp:131] Top shape: 50 (50)
I0519 10:39:51.671499 22564 net.cpp:139] Memory required for data: 24000200
I0519 10:39:51.671505 22564 layer_factory.hpp:77] Creating layer label_data_1_split
I0519 10:39:51.671517 22564 net.cpp:86] Creating Layer label_data_1_split
I0519 10:39:51.671520 22564 net.cpp:408] label_data_1_split <- label
I0519 10:39:51.671526 22564 net.cpp:382] label_data_1_split -> label_data_1_split_0
I0519 10:39:51.671533 22564 net.cpp:382] label_data_1_split -> label_data_1_split_1
I0519 10:39:51.671576 22564 net.cpp:124] Setting up label_data_1_split
I0519 10:39:51.671579 22564 net.cpp:131] Top shape: 50 (50)
I0519 10:39:51.671581 22564 net.cpp:131] Top shape: 50 (50)
I0519 10:39:51.671582 22564 net.cpp:139] Memory required for data: 24000600
I0519 10:39:51.671584 22564 layer_factory.hpp:77] Creating layer conv1
I0519 10:39:51.671595 22564 net.cpp:86] Creating Layer conv1
I0519 10:39:51.671599 22564 net.cpp:408] conv1 <- data
I0519 10:39:51.671602 22564 net.cpp:382] conv1 -> conv1
I0519 10:39:51.678400 22564 net.cpp:124] Setting up conv1
I0519 10:39:51.678411 22564 net.cpp:131] Top shape: 50 96 48 48 (11059200)
I0519 10:39:51.678412 22564 net.cpp:139] Memory required for data: 68237400
I0519 10:39:51.678421 22564 layer_factory.hpp:77] Creating layer relu1
I0519 10:39:51.678426 22564 net.cpp:86] Creating Layer relu1
I0519 10:39:51.678427 22564 net.cpp:408] relu1 <- conv1
I0519 10:39:51.678431 22564 net.cpp:369] relu1 -> conv1 (in-place)
I0519 10:39:51.680418 22564 net.cpp:124] Setting up relu1
I0519 10:39:51.680426 22564 net.cpp:131] Top shape: 50 96 48 48 (11059200)
I0519 10:39:51.680428 22564 net.cpp:139] Memory required for data: 112474200
I0519 10:39:51.680430 22564 layer_factory.hpp:77] Creating layer norm1
I0519 10:39:51.680436 22564 net.cpp:86] Creating Layer norm1
I0519 10:39:51.680438 22564 net.cpp:408] norm1 <- conv1
I0519 10:39:51.680441 22564 net.cpp:382] norm1 -> norm1
I0519 10:39:51.680955 22564 net.cpp:124] Setting up norm1
I0519 10:39:51.680963 22564 net.cpp:131] Top shape: 50 96 48 48 (11059200)
I0519 10:39:51.680964 22564 net.cpp:139] Memory required for data: 156711000
I0519 10:39:51.680966 22564 layer_factory.hpp:77] Creating layer pool1
I0519 10:39:51.680971 22564 net.cpp:86] Creating Layer pool1
I0519 10:39:51.680974 22564 net.cpp:408] pool1 <- norm1
I0519 10:39:51.680977 22564 net.cpp:382] pool1 -> pool1
I0519 10:39:51.680999 22564 net.cpp:124] Setting up pool1
I0519 10:39:51.681001 22564 net.cpp:131] Top shape: 50 96 24 24 (2764800)
I0519 10:39:51.681002 22564 net.cpp:139] Memory required for data: 167770200
I0519 10:39:51.681005 22564 layer_factory.hpp:77] Creating layer conv2
I0519 10:39:51.681010 22564 net.cpp:86] Creating Layer conv2
I0519 10:39:51.681012 22564 net.cpp:408] conv2 <- pool1
I0519 10:39:51.681016 22564 net.cpp:382] conv2 -> conv2
I0519 10:39:51.696638 22564 net.cpp:124] Setting up conv2
I0519 10:39:51.696650 22564 net.cpp:131] Top shape: 50 256 24 24 (7372800)
I0519 10:39:51.696652 22564 net.cpp:139] Memory required for data: 197261400
I0519 10:39:51.696658 22564 layer_factory.hpp:77] Creating layer relu2
I0519 10:39:51.696662 22564 net.cpp:86] Creating Layer relu2
I0519 10:39:51.696664 22564 net.cpp:408] relu2 <- conv2
I0519 10:39:51.696667 22564 net.cpp:369] relu2 -> conv2 (in-place)
I0519 10:39:51.697264 22564 net.cpp:124] Setting up relu2
I0519 10:39:51.697299 22564 net.cpp:131] Top shape: 50 256 24 24 (7372800)
I0519 10:39:51.697301 22564 net.cpp:139] Memory required for data: 226752600
I0519 10:39:51.697304 22564 layer_factory.hpp:77] Creating layer norm2
I0519 10:39:51.697311 22564 net.cpp:86] Creating Layer norm2
I0519 10:39:51.697314 22564 net.cpp:408] norm2 <- conv2
I0519 10:39:51.697317 22564 net.cpp:382] norm2 -> norm2
I0519 10:39:51.698721 22564 net.cpp:124] Setting up norm2
I0519 10:39:51.698731 22564 net.cpp:131] Top shape: 50 256 24 24 (7372800)
I0519 10:39:51.698734 22564 net.cpp:139] Memory required for data: 256243800
I0519 10:39:51.698734 22564 layer_factory.hpp:77] Creating layer pool2
I0519 10:39:51.698740 22564 net.cpp:86] Creating Layer pool2
I0519 10:39:51.698742 22564 net.cpp:408] pool2 <- norm2
I0519 10:39:51.698745 22564 net.cpp:382] pool2 -> pool2
I0519 10:39:51.698768 22564 net.cpp:124] Setting up pool2
I0519 10:39:51.698771 22564 net.cpp:131] Top shape: 50 256 12 12 (1843200)
I0519 10:39:51.698772 22564 net.cpp:139] Memory required for data: 263616600
I0519 10:39:51.698776 22564 layer_factory.hpp:77] Creating layer conv3
I0519 10:39:51.698781 22564 net.cpp:86] Creating Layer conv3
I0519 10:39:51.698783 22564 net.cpp:408] conv3 <- pool2
I0519 10:39:51.698786 22564 net.cpp:382] conv3 -> conv3
I0519 10:39:51.714663 22564 net.cpp:124] Setting up conv3
I0519 10:39:51.714691 22564 net.cpp:131] Top shape: 50 384 12 12 (2764800)
I0519 10:39:51.714694 22564 net.cpp:139] Memory required for data: 274675800
I0519 10:39:51.714706 22564 layer_factory.hpp:77] Creating layer relu3
I0519 10:39:51.714715 22564 net.cpp:86] Creating Layer relu3
I0519 10:39:51.714717 22564 net.cpp:408] relu3 <- conv3
I0519 10:39:51.714721 22564 net.cpp:369] relu3 -> conv3 (in-place)
I0519 10:39:51.716470 22564 net.cpp:124] Setting up relu3
I0519 10:39:51.716485 22564 net.cpp:131] Top shape: 50 384 12 12 (2764800)
I0519 10:39:51.716485 22564 net.cpp:139] Memory required for data: 285735000
I0519 10:39:51.716488 22564 layer_factory.hpp:77] Creating layer conv4
I0519 10:39:51.716511 22564 net.cpp:86] Creating Layer conv4
I0519 10:39:51.716513 22564 net.cpp:408] conv4 <- conv3
I0519 10:39:51.716521 22564 net.cpp:382] conv4 -> conv4
I0519 10:39:51.728068 22564 net.cpp:124] Setting up conv4
I0519 10:39:51.728080 22564 net.cpp:131] Top shape: 50 384 12 12 (2764800)
I0519 10:39:51.728081 22564 net.cpp:139] Memory required for data: 296794200
I0519 10:39:51.728087 22564 layer_factory.hpp:77] Creating layer relu4
I0519 10:39:51.728097 22564 net.cpp:86] Creating Layer relu4
I0519 10:39:51.728099 22564 net.cpp:408] relu4 <- conv4
I0519 10:39:51.728102 22564 net.cpp:369] relu4 -> conv4 (in-place)
I0519 10:39:51.728792 22564 net.cpp:124] Setting up relu4
I0519 10:39:51.728801 22564 net.cpp:131] Top shape: 50 384 12 12 (2764800)
I0519 10:39:51.728803 22564 net.cpp:139] Memory required for data: 307853400
I0519 10:39:51.728806 22564 layer_factory.hpp:77] Creating layer conv5
I0519 10:39:51.728819 22564 net.cpp:86] Creating Layer conv5
I0519 10:39:51.728821 22564 net.cpp:408] conv5 <- conv4
I0519 10:39:51.728830 22564 net.cpp:382] conv5 -> conv5
I0519 10:39:51.749543 22564 net.cpp:124] Setting up conv5
I0519 10:39:51.749568 22564 net.cpp:131] Top shape: 50 256 12 12 (1843200)
I0519 10:39:51.749572 22564 net.cpp:139] Memory required for data: 315226200
I0519 10:39:51.749588 22564 layer_factory.hpp:77] Creating layer relu5
I0519 10:39:51.749595 22564 net.cpp:86] Creating Layer relu5
I0519 10:39:51.749598 22564 net.cpp:408] relu5 <- conv5
I0519 10:39:51.749603 22564 net.cpp:369] relu5 -> conv5 (in-place)
I0519 10:39:51.750425 22564 net.cpp:124] Setting up relu5
I0519 10:39:51.750439 22564 net.cpp:131] Top shape: 50 256 12 12 (1843200)
I0519 10:39:51.750442 22564 net.cpp:139] Memory required for data: 322599000
I0519 10:39:51.750444 22564 layer_factory.hpp:77] Creating layer pool5
I0519 10:39:51.750466 22564 net.cpp:86] Creating Layer pool5
I0519 10:39:51.750468 22564 net.cpp:408] pool5 <- conv5
I0519 10:39:51.750478 22564 net.cpp:382] pool5 -> pool5
I0519 10:39:51.750571 22564 net.cpp:124] Setting up pool5
I0519 10:39:51.750581 22564 net.cpp:131] Top shape: 50 256 6 6 (460800)
I0519 10:39:51.750584 22564 net.cpp:139] Memory required for data: 324442200
I0519 10:39:51.750586 22564 layer_factory.hpp:77] Creating layer fc6
I0519 10:39:51.750605 22564 net.cpp:86] Creating Layer fc6
I0519 10:39:51.750609 22564 net.cpp:408] fc6 <- pool5
I0519 10:39:51.750617 22564 net.cpp:382] fc6 -> fc6
I0519 10:39:52.042488 22564 net.cpp:124] Setting up fc6
I0519 10:39:52.042526 22564 net.cpp:131] Top shape: 50 4096 (204800)
I0519 10:39:52.042528 22564 net.cpp:139] Memory required for data: 325261400
I0519 10:39:52.042538 22564 layer_factory.hpp:77] Creating layer relu6
I0519 10:39:52.042549 22564 net.cpp:86] Creating Layer relu6
I0519 10:39:52.042552 22564 net.cpp:408] relu6 <- fc6
I0519 10:39:52.042560 22564 net.cpp:369] relu6 -> fc6 (in-place)
I0519 10:39:52.043741 22564 net.cpp:124] Setting up relu6
I0519 10:39:52.043752 22564 net.cpp:131] Top shape: 50 4096 (204800)
I0519 10:39:52.043754 22564 net.cpp:139] Memory required for data: 326080600
I0519 10:39:52.043756 22564 layer_factory.hpp:77] Creating layer drop6
I0519 10:39:52.043764 22564 net.cpp:86] Creating Layer drop6
I0519 10:39:52.043766 22564 net.cpp:408] drop6 <- fc6
I0519 10:39:52.043768 22564 net.cpp:369] drop6 -> fc6 (in-place)
I0519 10:39:52.043787 22564 net.cpp:124] Setting up drop6
I0519 10:39:52.043789 22564 net.cpp:131] Top shape: 50 4096 (204800)
I0519 10:39:52.043792 22564 net.cpp:139] Memory required for data: 326899800
I0519 10:39:52.043793 22564 layer_factory.hpp:77] Creating layer fc7
I0519 10:39:52.043799 22564 net.cpp:86] Creating Layer fc7
I0519 10:39:52.043802 22564 net.cpp:408] fc7 <- fc6
I0519 10:39:52.043803 22564 net.cpp:382] fc7 -> fc7
I0519 10:39:52.170759 22564 net.cpp:124] Setting up fc7
I0519 10:39:52.170792 22564 net.cpp:131] Top shape: 50 4096 (204800)
I0519 10:39:52.170794 22564 net.cpp:139] Memory required for data: 327719000
I0519 10:39:52.170804 22564 layer_factory.hpp:77] Creating layer relu7
I0519 10:39:52.170812 22564 net.cpp:86] Creating Layer relu7
I0519 10:39:52.170815 22564 net.cpp:408] relu7 <- fc7
I0519 10:39:52.170821 22564 net.cpp:369] relu7 -> fc7 (in-place)
I0519 10:39:52.171272 22564 net.cpp:124] Setting up relu7
I0519 10:39:52.171280 22564 net.cpp:131] Top shape: 50 4096 (204800)
I0519 10:39:52.171283 22564 net.cpp:139] Memory required for data: 328538200
I0519 10:39:52.171284 22564 layer_factory.hpp:77] Creating layer drop7
I0519 10:39:52.171291 22564 net.cpp:86] Creating Layer drop7
I0519 10:39:52.171293 22564 net.cpp:408] drop7 <- fc7
I0519 10:39:52.171295 22564 net.cpp:369] drop7 -> fc7 (in-place)
I0519 10:39:52.171311 22564 net.cpp:124] Setting up drop7
I0519 10:39:52.171314 22564 net.cpp:131] Top shape: 50 4096 (204800)
I0519 10:39:52.171314 22564 net.cpp:139] Memory required for data: 329357400
I0519 10:39:52.171316 22564 layer_factory.hpp:77] Creating layer fc8
I0519 10:39:52.171321 22564 net.cpp:86] Creating Layer fc8
I0519 10:39:52.171324 22564 net.cpp:408] fc8 <- fc7
I0519 10:39:52.171326 22564 net.cpp:382] fc8 -> fc8
I0519 10:39:52.172433 22564 net.cpp:124] Setting up fc8
I0519 10:39:52.172441 22564 net.cpp:131] Top shape: 50 43 (2150)
I0519 10:39:52.172441 22564 net.cpp:139] Memory required for data: 329366000
I0519 10:39:52.172444 22564 layer_factory.hpp:77] Creating layer fc8_fc8_0_split
I0519 10:39:52.172448 22564 net.cpp:86] Creating Layer fc8_fc8_0_split
I0519 10:39:52.172449 22564 net.cpp:408] fc8_fc8_0_split <- fc8
I0519 10:39:52.172453 22564 net.cpp:382] fc8_fc8_0_split -> fc8_fc8_0_split_0
I0519 10:39:52.172456 22564 net.cpp:382] fc8_fc8_0_split -> fc8_fc8_0_split_1
I0519 10:39:52.172477 22564 net.cpp:124] Setting up fc8_fc8_0_split
I0519 10:39:52.172478 22564 net.cpp:131] Top shape: 50 43 (2150)
I0519 10:39:52.172480 22564 net.cpp:131] Top shape: 50 43 (2150)
I0519 10:39:52.172482 22564 net.cpp:139] Memory required for data: 329383200
I0519 10:39:52.172483 22564 layer_factory.hpp:77] Creating layer accuracy
I0519 10:39:52.172490 22564 net.cpp:86] Creating Layer accuracy
I0519 10:39:52.172508 22564 net.cpp:408] accuracy <- fc8_fc8_0_split_0
I0519 10:39:52.172509 22564 net.cpp:408] accuracy <- label_data_1_split_0
I0519 10:39:52.172513 22564 net.cpp:382] accuracy -> accuracy
…
