…
I0521 19:28:08.348747 17460 net.cpp:296] The NetState phase (0) differed from the phase (1) specified by a rule in layer accuracy
I0521 19:28:08.348846 17460 net.cpp:53] Initializing net from parameters: 
name: "AlexNetBN"
state {
  phase: TRAIN
  level: 0
  stage: ""
}
layer {
  name: "data"
  type: "Data"
  top: "data"
  top: "label"
  include {
    phase: TRAIN
  }
  transform_param {
    mirror: true
    crop_size: 200
    mean_file: "./data/mean_lmdb_train/gtsrb_train_mean.binaryproto"
  }
  data_param {
    source: "./data/lmdb_train"
    batch_size: 256
    backend: LMDB
  }
}
layer {
  name: "conv1"
  type: "Convolution"
  bottom: "data"
  top: "conv1"
  param {
    lr_mult: 1
    decay_mult: 1
  }
  param {
    lr_mult: 2
    decay_mult: 0
  }
  convolution_param {
    num_output: 96
    kernel_size: 11
    stride: 4
    weight_filler {
      type: "gaussian"
      std: 0.01
    }
    bias_filler {
      type: "constant"
      value: 0
    }
  }
}
layer {
  name: "bn1"
  type: "BatchNorm"
  bottom: "conv1"
  top: "bn1"
  param {
    lr_mult: 0
    decay_mult: 0
  }
  param {
    lr_mult: 0
    decay_mult: 0
  }
  param {
    lr_mult: 0
    decay_mult: 0
  }
}
layer {
  name: "relu1"
  type: "ReLU"
  bottom: "bn1"
  top: "bn1"
}
layer {
  name: "pool1"
  type: "Pooling"
  bottom: "bn1"
  top: "pool1"
  pooling_param {
    pool: MAX
    kernel_size: 3
    stride: 2
  }
}
layer {
  name: "conv2"
  type: "Convolution"
  bottom: "pool1"
  top: "conv2"
  param {
    lr_mult: 1
    decay_mult: 1
  }
  param {
    lr_mult: 2
    decay_mult: 0
  }
  convolution_param {
    num_output: 256
    pad: 2
    kernel_size: 5
    group: 2
    weight_filler {
      type: "gaussian"
      std: 0.01
    }
    bias_filler {
      type: "constant"
      value: 0.1
    }
  }
}
layer {
  name: "bn2"
  type: "BatchNorm"
  bottom: "conv2"
  top: "bn2"
  param {
    lr_mult: 0
    decay_mult: 0
  }
  param {
    lr_mult: 0
    decay_mult: 0
  }
  param {
    lr_mult: 0
    decay_mult: 0
  }
}
layer {
  name: "relu2"
  type: "ReLU"
  bottom: "bn2"
  top: "bn2"
}
layer {
  name: "pool2"
  type: "Pooling"
  bottom: "bn2"
  top: "pool2"
  pooling_param {
    pool: MAX
    kernel_size: 3
    stride: 2
  }
}
layer {
  name: "conv3"
  type: "Convolution"
  bottom: "pool2"
  top: "conv3"
  param {
    lr_mult: 1
    decay_mult: 1
  }
  param {
    lr_mult: 2
    decay_mult: 0
  }
  convolution_param {
    num_output: 384
    pad: 1
    kernel_size: 3
    weight_filler {
      type: "gaussian"
      std: 0.01
    }
    bias_filler {
      type: "constant"
      value: 0
    }
  }
}
layer {
  name: "relu3"
  type: "ReLU"
  bottom: "conv3"
  top: "conv3"
}
layer {
  name: "conv4"
  type: "Convolution"
  bottom: "conv3"
  top: "conv4"
  param {
    lr_mult: 1
    decay_mult: 1
  }
  param {
    lr_mult: 2
    decay_mult: 0
  }
  convolution_param {
    num_output: 384
    pad: 1
    kernel_size: 3
    group: 2
    weight_filler {
      type: "gaussian"
      std: 0.01
    }
    bias_filler {
      type: "constant"
      value: 0.1
    }
  }
}
layer {
  name: "relu4"
  type: "ReLU"
  bottom: "conv4"
  top: "conv4"
}
layer {
  name: "conv5"
  type: "Convolution"
  bottom: "conv4"
  top: "conv5"
  param {
    lr_mult: 1
    decay_mult: 1
  }
  param {
    lr_mult: 2
    decay_mult: 0
  }
  convolution_param {
    num_output: 256
    pad: 1
    kernel_size: 3
    group: 2
    weight_filler {
      type: "gaussian"
      std: 0.01
    }
    bias_filler {
      type: "constant"
      value: 0.1
    }
  }
}
layer {
  name: "relu5"
  type: "ReLU"
  bottom: "conv5"
  top: "conv5"
}
layer {
  name: "pool5"
  type: "Pooling"
  bottom: "conv5"
  top: "pool5"
  pooling_param {
    pool: MAX
    kernel_size: 3
    stride: 2
  }
}
layer {
  name: "fc6"
  type: "InnerProduct"
  bottom: "pool5"
  top: "fc6"
  param {
    lr_mult: 1
    decay_mult: 1
  }
  param {
    lr_mult: 2
    decay_mult: 0
  }
  inner_product_param {
    num_output: 4096
    weight_filler {
      type: "gaussian"
      std: 0.005
    }
    bias_filler {
      type: "constant"
      value: 0.1
    }
  }
}
layer {
  name: "relu6"
  type: "ReLU"
  bottom: "fc6"
  top: "fc6"
}
layer {
  name: "drop6"
  type: "Dropout"
  bottom: "fc6"
  top: "fc6"
  dropout_param {
    dropout_ratio: 0.5
  }
}
layer {
  name: "fc7"
  type: "InnerProduct"
  bottom: "fc6"
  top: "fc7"
  param {
    lr_mult: 1
    decay_mult: 1
  }
  param {
    lr_mult: 2
    decay_mult: 0
  }
  inner_product_param {
    num_output: 4096
    weight_filler {
      type: "gaussian"
      std: 0.005
    }
    bias_filler {
      type: "constant"
      value: 0.1
    }
  }
}
layer {
  name: "relu7"
  type: "ReLU"
  bottom: "fc7"
  top: "fc7"
}
layer {
  name: "drop7"
  type: "Dropout"
  bottom: "fc7"
  top: "fc7"
  dropout_param {
    dropout_ratio: 0.5
  }
}
layer {
  name: "fc8"
  type: "InnerProduct"
  bottom: "fc7"
  top: "fc8"
  param {
    lr_mult: 1
    decay_mult: 1
  }
  param {
    lr_mult: 2
    decay_mult: 0
  }
  inner_product_param {
    num_output: 43
    weight_filler {
      type: "gaussian"
      std: 0.01
    }
    bias_filler {
      type: "constant"
      value: 0
    }
  }
}
layer {
  name: "loss"
  type: "SoftmaxWithLoss"
  bottom: "fc8"
  bottom: "label"
  top: "loss"
}
I0521 19:28:08.348917 17460 layer_factory.hpp:77] Creating layer data
I0521 19:28:08.349000 17460 db_lmdb.cpp:35] Opened lmdb ./data/lmdb_train
I0521 19:28:08.349020 17460 net.cpp:86] Creating Layer data
I0521 19:28:08.349025 17460 net.cpp:382] data -> data
I0521 19:28:08.349040 17460 net.cpp:382] data -> label
I0521 19:28:08.349051 17460 data_transformer.cpp:25] Loading mean file from: ./data/mean_lmdb_train/gtsrb_train_mean.binaryproto
I0521 19:28:08.350757 17460 data_layer.cpp:45] output data size: 256,3,200,200
I0521 19:28:08.611248 17460 net.cpp:124] Setting up data
I0521 19:28:08.611281 17460 net.cpp:131] Top shape: 256 3 200 200 (30720000)
I0521 19:28:08.611285 17460 net.cpp:131] Top shape: 256 (256)
I0521 19:28:08.611287 17460 net.cpp:139] Memory required for data: 122881024
I0521 19:28:08.611297 17460 layer_factory.hpp:77] Creating layer conv1
I0521 19:28:08.611325 17460 net.cpp:86] Creating Layer conv1
I0521 19:28:08.611331 17460 net.cpp:408] conv1 <- data
I0521 19:28:08.611346 17460 net.cpp:382] conv1 -> conv1
I0521 19:28:09.562583 17460 net.cpp:124] Setting up conv1
I0521 19:28:09.562614 17460 net.cpp:131] Top shape: 256 96 48 48 (56623104)
I0521 19:28:09.562618 17460 net.cpp:139] Memory required for data: 349373440
I0521 19:28:09.562636 17460 layer_factory.hpp:77] Creating layer bn1
I0521 19:28:09.562645 17460 net.cpp:86] Creating Layer bn1
I0521 19:28:09.562649 17460 net.cpp:408] bn1 <- conv1
I0521 19:28:09.562652 17460 net.cpp:382] bn1 -> bn1
I0521 19:28:09.562764 17460 net.cpp:124] Setting up bn1
I0521 19:28:09.562769 17460 net.cpp:131] Top shape: 256 96 48 48 (56623104)
I0521 19:28:09.562770 17460 net.cpp:139] Memory required for data: 575865856
I0521 19:28:09.562777 17460 layer_factory.hpp:77] Creating layer relu1
I0521 19:28:09.562781 17460 net.cpp:86] Creating Layer relu1
I0521 19:28:09.562783 17460 net.cpp:408] relu1 <- bn1
I0521 19:28:09.562808 17460 net.cpp:369] relu1 -> bn1 (in-place)
I0521 19:28:09.563146 17460 net.cpp:124] Setting up relu1
I0521 19:28:09.563154 17460 net.cpp:131] Top shape: 256 96 48 48 (56623104)
I0521 19:28:09.563156 17460 net.cpp:139] Memory required for data: 802358272
I0521 19:28:09.563158 17460 layer_factory.hpp:77] Creating layer pool1
I0521 19:28:09.563163 17460 net.cpp:86] Creating Layer pool1
I0521 19:28:09.563165 17460 net.cpp:408] pool1 <- bn1
I0521 19:28:09.563169 17460 net.cpp:382] pool1 -> pool1
I0521 19:28:09.563200 17460 net.cpp:124] Setting up pool1
I0521 19:28:09.563205 17460 net.cpp:131] Top shape: 256 96 24 24 (14155776)
I0521 19:28:09.563206 17460 net.cpp:139] Memory required for data: 858981376
I0521 19:28:09.563208 17460 layer_factory.hpp:77] Creating layer conv2
I0521 19:28:09.563217 17460 net.cpp:86] Creating Layer conv2
I0521 19:28:09.563218 17460 net.cpp:408] conv2 <- pool1
I0521 19:28:09.563221 17460 net.cpp:382] conv2 -> conv2
I0521 19:28:09.568007 17460 net.cpp:124] Setting up conv2
I0521 19:28:09.568018 17460 net.cpp:131] Top shape: 256 256 24 24 (37748736)
I0521 19:28:09.568020 17460 net.cpp:139] Memory required for data: 1009976320
I0521 19:28:09.568024 17460 layer_factory.hpp:77] Creating layer bn2
I0521 19:28:09.568028 17460 net.cpp:86] Creating Layer bn2
I0521 19:28:09.568029 17460 net.cpp:408] bn2 <- conv2
I0521 19:28:09.568033 17460 net.cpp:382] bn2 -> bn2
I0521 19:28:09.568128 17460 net.cpp:124] Setting up bn2
I0521 19:28:09.568141 17460 net.cpp:131] Top shape: 256 256 24 24 (37748736)
I0521 19:28:09.568143 17460 net.cpp:139] Memory required for data: 1160971264
I0521 19:28:09.568148 17460 layer_factory.hpp:77] Creating layer relu2
I0521 19:28:09.568152 17460 net.cpp:86] Creating Layer relu2
I0521 19:28:09.568154 17460 net.cpp:408] relu2 <- bn2
I0521 19:28:09.568156 17460 net.cpp:369] relu2 -> bn2 (in-place)
I0521 19:28:09.568466 17460 net.cpp:124] Setting up relu2
I0521 19:28:09.568473 17460 net.cpp:131] Top shape: 256 256 24 24 (37748736)
I0521 19:28:09.568475 17460 net.cpp:139] Memory required for data: 1311966208
I0521 19:28:09.568476 17460 layer_factory.hpp:77] Creating layer pool2
I0521 19:28:09.568481 17460 net.cpp:86] Creating Layer pool2
I0521 19:28:09.568482 17460 net.cpp:408] pool2 <- bn2
I0521 19:28:09.568486 17460 net.cpp:382] pool2 -> pool2
I0521 19:28:09.568506 17460 net.cpp:124] Setting up pool2
I0521 19:28:09.568508 17460 net.cpp:131] Top shape: 256 256 12 12 (9437184)
I0521 19:28:09.568511 17460 net.cpp:139] Memory required for data: 1349714944
I0521 19:28:09.568511 17460 layer_factory.hpp:77] Creating layer conv3
I0521 19:28:09.568517 17460 net.cpp:86] Creating Layer conv3
I0521 19:28:09.568519 17460 net.cpp:408] conv3 <- pool2
I0521 19:28:09.568521 17460 net.cpp:382] conv3 -> conv3
I0521 19:28:09.575354 17460 net.cpp:124] Setting up conv3
I0521 19:28:09.575364 17460 net.cpp:131] Top shape: 256 384 12 12 (14155776)
I0521 19:28:09.575366 17460 net.cpp:139] Memory required for data: 1406338048
I0521 19:28:09.575371 17460 layer_factory.hpp:77] Creating layer relu3
I0521 19:28:09.575373 17460 net.cpp:86] Creating Layer relu3
I0521 19:28:09.575376 17460 net.cpp:408] relu3 <- conv3
I0521 19:28:09.575378 17460 net.cpp:369] relu3 -> conv3 (in-place)
I0521 19:28:09.575683 17460 net.cpp:124] Setting up relu3
I0521 19:28:09.575691 17460 net.cpp:131] Top shape: 256 384 12 12 (14155776)
I0521 19:28:09.575692 17460 net.cpp:139] Memory required for data: 1462961152
I0521 19:28:09.575695 17460 layer_factory.hpp:77] Creating layer conv4
I0521 19:28:09.575700 17460 net.cpp:86] Creating Layer conv4
I0521 19:28:09.575701 17460 net.cpp:408] conv4 <- conv3
I0521 19:28:09.575704 17460 net.cpp:382] conv4 -> conv4
I0521 19:28:09.583145 17460 net.cpp:124] Setting up conv4
I0521 19:28:09.583159 17460 net.cpp:131] Top shape: 256 384 12 12 (14155776)
I0521 19:28:09.583161 17460 net.cpp:139] Memory required for data: 1519584256
I0521 19:28:09.583166 17460 layer_factory.hpp:77] Creating layer relu4
I0521 19:28:09.583171 17460 net.cpp:86] Creating Layer relu4
I0521 19:28:09.583173 17460 net.cpp:408] relu4 <- conv4
I0521 19:28:09.583194 17460 net.cpp:369] relu4 -> conv4 (in-place)
I0521 19:28:09.583509 17460 net.cpp:124] Setting up relu4
I0521 19:28:09.583518 17460 net.cpp:131] Top shape: 256 384 12 12 (14155776)
I0521 19:28:09.583519 17460 net.cpp:139] Memory required for data: 1576207360
I0521 19:28:09.583521 17460 layer_factory.hpp:77] Creating layer conv5
I0521 19:28:09.583528 17460 net.cpp:86] Creating Layer conv5
I0521 19:28:09.583529 17460 net.cpp:408] conv5 <- conv4
I0521 19:28:09.583534 17460 net.cpp:382] conv5 -> conv5
I0521 19:28:09.588476 17460 net.cpp:124] Setting up conv5
I0521 19:28:09.588486 17460 net.cpp:131] Top shape: 256 256 12 12 (9437184)
I0521 19:28:09.588488 17460 net.cpp:139] Memory required for data: 1613956096
I0521 19:28:09.588492 17460 layer_factory.hpp:77] Creating layer relu5
I0521 19:28:09.588495 17460 net.cpp:86] Creating Layer relu5
I0521 19:28:09.588497 17460 net.cpp:408] relu5 <- conv5
I0521 19:28:09.588500 17460 net.cpp:369] relu5 -> conv5 (in-place)
I0521 19:28:09.588809 17460 net.cpp:124] Setting up relu5
I0521 19:28:09.588816 17460 net.cpp:131] Top shape: 256 256 12 12 (9437184)
I0521 19:28:09.588817 17460 net.cpp:139] Memory required for data: 1651704832
I0521 19:28:09.588819 17460 layer_factory.hpp:77] Creating layer pool5
I0521 19:28:09.588824 17460 net.cpp:86] Creating Layer pool5
I0521 19:28:09.588826 17460 net.cpp:408] pool5 <- conv5
I0521 19:28:09.588830 17460 net.cpp:382] pool5 -> pool5
I0521 19:28:09.588851 17460 net.cpp:124] Setting up pool5
I0521 19:28:09.588855 17460 net.cpp:131] Top shape: 256 256 6 6 (2359296)
I0521 19:28:09.588856 17460 net.cpp:139] Memory required for data: 1661142016
I0521 19:28:09.588858 17460 layer_factory.hpp:77] Creating layer fc6
I0521 19:28:09.588865 17460 net.cpp:86] Creating Layer fc6
I0521 19:28:09.588866 17460 net.cpp:408] fc6 <- pool5
I0521 19:28:09.588869 17460 net.cpp:382] fc6 -> fc6
I0521 19:28:09.853582 17460 net.cpp:124] Setting up fc6
I0521 19:28:09.853615 17460 net.cpp:131] Top shape: 256 4096 (1048576)
I0521 19:28:09.853616 17460 net.cpp:139] Memory required for data: 1665336320
I0521 19:28:09.853631 17460 layer_factory.hpp:77] Creating layer relu6
I0521 19:28:09.853641 17460 net.cpp:86] Creating Layer relu6
I0521 19:28:09.853643 17460 net.cpp:408] relu6 <- fc6
I0521 19:28:09.853648 17460 net.cpp:369] relu6 -> fc6 (in-place)
I0521 19:28:09.855473 17460 net.cpp:124] Setting up relu6
I0521 19:28:09.855484 17460 net.cpp:131] Top shape: 256 4096 (1048576)
I0521 19:28:09.855485 17460 net.cpp:139] Memory required for data: 1669530624
I0521 19:28:09.855489 17460 layer_factory.hpp:77] Creating layer drop6
I0521 19:28:09.855494 17460 net.cpp:86] Creating Layer drop6
I0521 19:28:09.855496 17460 net.cpp:408] drop6 <- fc6
I0521 19:28:09.855499 17460 net.cpp:369] drop6 -> fc6 (in-place)
I0521 19:28:09.855521 17460 net.cpp:124] Setting up drop6
I0521 19:28:09.855523 17460 net.cpp:131] Top shape: 256 4096 (1048576)
I0521 19:28:09.855525 17460 net.cpp:139] Memory required for data: 1673724928
I0521 19:28:09.855526 17460 layer_factory.hpp:77] Creating layer fc7
I0521 19:28:09.855531 17460 net.cpp:86] Creating Layer fc7
I0521 19:28:09.855533 17460 net.cpp:408] fc7 <- fc6
I0521 19:28:09.855536 17460 net.cpp:382] fc7 -> fc7
I0521 19:28:09.969964 17460 net.cpp:124] Setting up fc7
I0521 19:28:09.969998 17460 net.cpp:131] Top shape: 256 4096 (1048576)
I0521 19:28:09.970001 17460 net.cpp:139] Memory required for data: 1677919232
I0521 19:28:09.970013 17460 layer_factory.hpp:77] Creating layer relu7
I0521 19:28:09.970024 17460 net.cpp:86] Creating Layer relu7
I0521 19:28:09.970027 17460 net.cpp:408] relu7 <- fc7
I0521 19:28:09.970032 17460 net.cpp:369] relu7 -> fc7 (in-place)
I0521 19:28:09.970691 17460 net.cpp:124] Setting up relu7
I0521 19:28:09.970702 17460 net.cpp:131] Top shape: 256 4096 (1048576)
I0521 19:28:09.970703 17460 net.cpp:139] Memory required for data: 1682113536
I0521 19:28:09.970705 17460 layer_factory.hpp:77] Creating layer drop7
I0521 19:28:09.970711 17460 net.cpp:86] Creating Layer drop7
I0521 19:28:09.970713 17460 net.cpp:408] drop7 <- fc7
I0521 19:28:09.970737 17460 net.cpp:369] drop7 -> fc7 (in-place)
I0521 19:28:09.970753 17460 net.cpp:124] Setting up drop7
I0521 19:28:09.970757 17460 net.cpp:131] Top shape: 256 4096 (1048576)
I0521 19:28:09.970758 17460 net.cpp:139] Memory required for data: 1686307840
I0521 19:28:09.970760 17460 layer_factory.hpp:77] Creating layer fc8
I0521 19:28:09.970765 17460 net.cpp:86] Creating Layer fc8
I0521 19:28:09.970767 17460 net.cpp:408] fc8 <- fc7
I0521 19:28:09.970769 17460 net.cpp:382] fc8 -> fc8
I0521 19:28:09.972548 17460 net.cpp:124] Setting up fc8
I0521 19:28:09.972555 17460 net.cpp:131] Top shape: 256 43 (11008)
I0521 19:28:09.972558 17460 net.cpp:139] Memory required for data: 1686351872
I0521 19:28:09.972561 17460 layer_factory.hpp:77] Creating layer loss
I0521 19:28:09.972564 17460 net.cpp:86] Creating Layer loss
I0521 19:28:09.972566 17460 net.cpp:408] loss <- fc8
I0521 19:28:09.972568 17460 net.cpp:408] loss <- label
I0521 19:28:09.972574 17460 net.cpp:382] loss -> loss
I0521 19:28:09.972585 17460 layer_factory.hpp:77] Creating layer loss
…
I0521 19:28:09.973210 17460 net.cpp:296] The NetState phase (1) differed from the phase (0) specified by a rule in layer data
I0521 19:28:09.973327 17460 net.cpp:53] Initializing net from parameters: 
name: "AlexNetBN"
state {
  phase: TEST
}
layer {
  name: "data"
  type: "Data"
  top: "data"
  top: "label"
  include {
    phase: TEST
  }
  transform_param {
    mirror: false
    crop_size: 200
    mean_file: "./data/mean_lmdb_test/gtsrb_test_mean.binaryproto"
  }
  data_param {
    source: "./data/lmdb_test"
    batch_size: 50
    backend: LMDB
  }
}
layer {
  name: "conv1"
  type: "Convolution"
  bottom: "data"
  top: "conv1"
  param {
    lr_mult: 1
    decay_mult: 1
  }
  param {
    lr_mult: 2
    decay_mult: 0
  }
  convolution_param {
    num_output: 96
    kernel_size: 11
    stride: 4
    weight_filler {
      type: "gaussian"
      std: 0.01
    }
    bias_filler {
      type: "constant"
      value: 0
    }
  }
}
layer {
  name: "bn1"
  type: "BatchNorm"
  bottom: "conv1"
  top: "bn1"
  param {
    lr_mult: 0
    decay_mult: 0
  }
  param {
    lr_mult: 0
    decay_mult: 0
  }
  param {
    lr_mult: 0
    decay_mult: 0
  }
}
layer {
  name: "relu1"
  type: "ReLU"
  bottom: "bn1"
  top: "bn1"
}
layer {
  name: "pool1"
  type: "Pooling"
  bottom: "bn1"
  top: "pool1"
  pooling_param {
    pool: MAX
    kernel_size: 3
    stride: 2
  }
}
layer {
  name: "conv2"
  type: "Convolution"
  bottom: "pool1"
  top: "conv2"
  param {
    lr_mult: 1
    decay_mult: 1
  }
  param {
    lr_mult: 2
    decay_mult: 0
  }
  convolution_param {
    num_output: 256
    pad: 2
    kernel_size: 5
    group: 2
    weight_filler {
      type: "gaussian"
      std: 0.01
    }
    bias_filler {
      type: "constant"
      value: 0.1
    }
  }
}
layer {
  name: "bn2"
  type: "BatchNorm"
  bottom: "conv2"
  top: "bn2"
  param {
    lr_mult: 0
    decay_mult: 0
  }
  param {
    lr_mult: 0
    decay_mult: 0
  }
  param {
    lr_mult: 0
    decay_mult: 0
  }
}
layer {
  name: "relu2"
  type: "ReLU"
  bottom: "bn2"
  top: "bn2"
}
layer {
  name: "pool2"
  type: "Pooling"
  bottom: "bn2"
  top: "pool2"
  pooling_param {
    pool: MAX
    kernel_size: 3
    stride: 2
  }
}
layer {
  name: "conv3"
  type: "Convolution"
  bottom: "pool2"
  top: "conv3"
  param {
    lr_mult: 1
    decay_mult: 1
  }
  param {
    lr_mult: 2
    decay_mult: 0
  }
  convolution_param {
    num_output: 384
    pad: 1
    kernel_size: 3
    weight_filler {
      type: "gaussian"
      std: 0.01
    }
    bias_filler {
      type: "constant"
      value: 0
    }
  }
}
layer {
  name: "relu3"
  type: "ReLU"
  bottom: "conv3"
  top: "conv3"
}
layer {
  name: "conv4"
  type: "Convolution"
  bottom: "conv3"
  top: "conv4"
  param {
    lr_mult: 1
    decay_mult: 1
  }
  param {
    lr_mult: 2
    decay_mult: 0
  }
  convolution_param {
    num_output: 384
    pad: 1
    kernel_size: 3
    group: 2
    weight_filler {
      type: "gaussian"
      std: 0.01
    }
    bias_filler {
      type: "constant"
      value: 0.1
    }
  }
}
layer {
  name: "relu4"
  type: "ReLU"
  bottom: "conv4"
  top: "conv4"
}
layer {
  name: "conv5"
  type: "Convolution"
  bottom: "conv4"
  top: "conv5"
  param {
    lr_mult: 1
    decay_mult: 1
  }
  param {
    lr_mult: 2
    decay_mult: 0
  }
  convolution_param {
    num_output: 256
    pad: 1
    kernel_size: 3
    group: 2
    weight_filler {
      type: "gaussian"
      std: 0.01
    }
    bias_filler {
      type: "constant"
      value: 0.1
    }
  }
}
layer {
  name: "relu5"
  type: "ReLU"
  bottom: "conv5"
  top: "conv5"
}
layer {
  name: "pool5"
  type: "Pooling"
  bottom: "conv5"
  top: "pool5"
  pooling_param {
    pool: MAX
    kernel_size: 3
    stride: 2
  }
}
layer {
  name: "fc6"
  type: "InnerProduct"
  bottom: "pool5"
  top: "fc6"
  param {
    lr_mult: 1
    decay_mult: 1
  }
  param {
    lr_mult: 2
    decay_mult: 0
  }
  inner_product_param {
    num_output: 4096
    weight_filler {
      type: "gaussian"
      std: 0.005
    }
    bias_filler {
      type: "constant"
      value: 0.1
    }
  }
}
layer {
  name: "relu6"
  type: "ReLU"
  bottom: "fc6"
  top: "fc6"
}
layer {
  name: "drop6"
  type: "Dropout"
  bottom: "fc6"
  top: "fc6"
  dropout_param {
    dropout_ratio: 0.5
  }
}
layer {
  name: "fc7"
  type: "InnerProduct"
  bottom: "fc6"
  top: "fc7"
  param {
    lr_mult: 1
    decay_mult: 1
  }
  param {
    lr_mult: 2
    decay_mult: 0
  }
  inner_product_param {
    num_output: 4096
    weight_filler {
      type: "gaussian"
      std: 0.005
    }
    bias_filler {
      type: "constant"
      value: 0.1
    }
  }
}
layer {
  name: "relu7"
  type: "ReLU"
  bottom: "fc7"
  top: "fc7"
}
layer {
  name: "drop7"
  type: "Dropout"
  bottom: "fc7"
  top: "fc7"
  dropout_param {
    dropout_ratio: 0.5
  }
}
layer {
  name: "fc8"
  type: "InnerProduct"
  bottom: "fc7"
  top: "fc8"
  param {
    lr_mult: 1
    decay_mult: 1
  }
  param {
    lr_mult: 2
    decay_mult: 0
  }
  inner_product_param {
    num_output: 43
    weight_filler {
      type: "gaussian"
      std: 0.01
    }
    bias_filler {
      type: "constant"
      value: 0
    }
  }
}
layer {
  name: "accuracy"
  type: "Accuracy"
  bottom: "fc8"
  bottom: "label"
  top: "accuracy"
  include {
    phase: TEST
  }
}
layer {
  name: "loss"
  type: "SoftmaxWithLoss"
  bottom: "fc8"
  bottom: "label"
  top: "loss"
}
I0521 19:28:09.973398 17460 layer_factory.hpp:77] Creating layer data
I0521 19:28:09.973464 17460 db_lmdb.cpp:35] Opened lmdb ./data/lmdb_test
I0521 19:28:09.973479 17460 net.cpp:86] Creating Layer data
I0521 19:28:09.973482 17460 net.cpp:382] data -> data
I0521 19:28:09.973487 17460 net.cpp:382] data -> label
I0521 19:28:09.973493 17460 data_transformer.cpp:25] Loading mean file from: ./data/mean_lmdb_test/gtsrb_test_mean.binaryproto
I0521 19:28:09.974215 17460 data_layer.cpp:45] output data size: 50,3,200,200
I0521 19:28:10.023591 17460 net.cpp:124] Setting up data
I0521 19:28:10.023620 17460 net.cpp:131] Top shape: 50 3 200 200 (6000000)
I0521 19:28:10.023624 17460 net.cpp:131] Top shape: 50 (50)
I0521 19:28:10.023625 17460 net.cpp:139] Memory required for data: 24000200
I0521 19:28:10.023633 17460 layer_factory.hpp:77] Creating layer label_data_1_split
I0521 19:28:10.023648 17460 net.cpp:86] Creating Layer label_data_1_split
I0521 19:28:10.023663 17460 net.cpp:408] label_data_1_split <- label
I0521 19:28:10.023670 17460 net.cpp:382] label_data_1_split -> label_data_1_split_0
I0521 19:28:10.023679 17460 net.cpp:382] label_data_1_split -> label_data_1_split_1
I0521 19:28:10.023726 17460 net.cpp:124] Setting up label_data_1_split
I0521 19:28:10.023730 17460 net.cpp:131] Top shape: 50 (50)
I0521 19:28:10.023731 17460 net.cpp:131] Top shape: 50 (50)
I0521 19:28:10.023733 17460 net.cpp:139] Memory required for data: 24000600
I0521 19:28:10.023736 17460 layer_factory.hpp:77] Creating layer conv1
I0521 19:28:10.023748 17460 net.cpp:86] Creating Layer conv1
I0521 19:28:10.023751 17460 net.cpp:408] conv1 <- data
I0521 19:28:10.023756 17460 net.cpp:382] conv1 -> conv1
I0521 19:28:10.027963 17460 net.cpp:124] Setting up conv1
I0521 19:28:10.027977 17460 net.cpp:131] Top shape: 50 96 48 48 (11059200)
I0521 19:28:10.027981 17460 net.cpp:139] Memory required for data: 68237400
I0521 19:28:10.027989 17460 layer_factory.hpp:77] Creating layer bn1
I0521 19:28:10.027997 17460 net.cpp:86] Creating Layer bn1
I0521 19:28:10.027999 17460 net.cpp:408] bn1 <- conv1
I0521 19:28:10.028004 17460 net.cpp:382] bn1 -> bn1
I0521 19:28:10.028149 17460 net.cpp:124] Setting up bn1
I0521 19:28:10.028154 17460 net.cpp:131] Top shape: 50 96 48 48 (11059200)
I0521 19:28:10.028156 17460 net.cpp:139] Memory required for data: 112474200
I0521 19:28:10.028162 17460 layer_factory.hpp:77] Creating layer relu1
I0521 19:28:10.028168 17460 net.cpp:86] Creating Layer relu1
I0521 19:28:10.028170 17460 net.cpp:408] relu1 <- bn1
I0521 19:28:10.028173 17460 net.cpp:369] relu1 -> bn1 (in-place)
I0521 19:28:10.028555 17460 net.cpp:124] Setting up relu1
I0521 19:28:10.028563 17460 net.cpp:131] Top shape: 50 96 48 48 (11059200)
I0521 19:28:10.028564 17460 net.cpp:139] Memory required for data: 156711000
I0521 19:28:10.028566 17460 layer_factory.hpp:77] Creating layer pool1
I0521 19:28:10.028573 17460 net.cpp:86] Creating Layer pool1
I0521 19:28:10.028573 17460 net.cpp:408] pool1 <- bn1
I0521 19:28:10.028576 17460 net.cpp:382] pool1 -> pool1
I0521 19:28:10.028600 17460 net.cpp:124] Setting up pool1
I0521 19:28:10.028604 17460 net.cpp:131] Top shape: 50 96 24 24 (2764800)
I0521 19:28:10.028606 17460 net.cpp:139] Memory required for data: 167770200
I0521 19:28:10.028630 17460 layer_factory.hpp:77] Creating layer conv2
I0521 19:28:10.028636 17460 net.cpp:86] Creating Layer conv2
I0521 19:28:10.028637 17460 net.cpp:408] conv2 <- pool1
I0521 19:28:10.028640 17460 net.cpp:382] conv2 -> conv2
I0521 19:28:10.034714 17460 net.cpp:124] Setting up conv2
I0521 19:28:10.034730 17460 net.cpp:131] Top shape: 50 256 24 24 (7372800)
I0521 19:28:10.034734 17460 net.cpp:139] Memory required for data: 197261400
I0521 19:28:10.034740 17460 layer_factory.hpp:77] Creating layer bn2
I0521 19:28:10.034747 17460 net.cpp:86] Creating Layer bn2
I0521 19:28:10.034750 17460 net.cpp:408] bn2 <- conv2
I0521 19:28:10.034754 17460 net.cpp:382] bn2 -> bn2
I0521 19:28:10.034881 17460 net.cpp:124] Setting up bn2
I0521 19:28:10.034888 17460 net.cpp:131] Top shape: 50 256 24 24 (7372800)
I0521 19:28:10.034888 17460 net.cpp:139] Memory required for data: 226752600
I0521 19:28:10.034894 17460 layer_factory.hpp:77] Creating layer relu2
I0521 19:28:10.034899 17460 net.cpp:86] Creating Layer relu2
I0521 19:28:10.034901 17460 net.cpp:408] relu2 <- bn2
I0521 19:28:10.034904 17460 net.cpp:369] relu2 -> bn2 (in-place)
I0521 19:28:10.035137 17460 net.cpp:124] Setting up relu2
I0521 19:28:10.035143 17460 net.cpp:131] Top shape: 50 256 24 24 (7372800)
I0521 19:28:10.035145 17460 net.cpp:139] Memory required for data: 256243800
I0521 19:28:10.035147 17460 layer_factory.hpp:77] Creating layer pool2
I0521 19:28:10.035151 17460 net.cpp:86] Creating Layer pool2
I0521 19:28:10.035153 17460 net.cpp:408] pool2 <- bn2
I0521 19:28:10.035156 17460 net.cpp:382] pool2 -> pool2
I0521 19:28:10.035176 17460 net.cpp:124] Setting up pool2
I0521 19:28:10.035179 17460 net.cpp:131] Top shape: 50 256 12 12 (1843200)
I0521 19:28:10.035181 17460 net.cpp:139] Memory required for data: 263616600
I0521 19:28:10.035183 17460 layer_factory.hpp:77] Creating layer conv3
I0521 19:28:10.035190 17460 net.cpp:86] Creating Layer conv3
I0521 19:28:10.035192 17460 net.cpp:408] conv3 <- pool2
I0521 19:28:10.035194 17460 net.cpp:382] conv3 -> conv3
I0521 19:28:10.044889 17460 net.cpp:124] Setting up conv3
I0521 19:28:10.044903 17460 net.cpp:131] Top shape: 50 384 12 12 (2764800)
I0521 19:28:10.044904 17460 net.cpp:139] Memory required for data: 274675800
I0521 19:28:10.044909 17460 layer_factory.hpp:77] Creating layer relu3
I0521 19:28:10.044914 17460 net.cpp:86] Creating Layer relu3
I0521 19:28:10.044915 17460 net.cpp:408] relu3 <- conv3
I0521 19:28:10.044919 17460 net.cpp:369] relu3 -> conv3 (in-place)
I0521 19:28:10.045266 17460 net.cpp:124] Setting up relu3
I0521 19:28:10.045274 17460 net.cpp:131] Top shape: 50 384 12 12 (2764800)
I0521 19:28:10.045276 17460 net.cpp:139] Memory required for data: 285735000
I0521 19:28:10.045279 17460 layer_factory.hpp:77] Creating layer conv4
I0521 19:28:10.045284 17460 net.cpp:86] Creating Layer conv4
I0521 19:28:10.045286 17460 net.cpp:408] conv4 <- conv3
I0521 19:28:10.045289 17460 net.cpp:382] conv4 -> conv4
I0521 19:28:10.056610 17460 net.cpp:124] Setting up conv4
I0521 19:28:10.056629 17460 net.cpp:131] Top shape: 50 384 12 12 (2764800)
I0521 19:28:10.056632 17460 net.cpp:139] Memory required for data: 296794200
I0521 19:28:10.056638 17460 layer_factory.hpp:77] Creating layer relu4
I0521 19:28:10.056641 17460 net.cpp:86] Creating Layer relu4
I0521 19:28:10.056644 17460 net.cpp:408] relu4 <- conv4
I0521 19:28:10.056648 17460 net.cpp:369] relu4 -> conv4 (in-place)
I0521 19:28:10.056985 17460 net.cpp:124] Setting up relu4
I0521 19:28:10.056993 17460 net.cpp:131] Top shape: 50 384 12 12 (2764800)
I0521 19:28:10.056993 17460 net.cpp:139] Memory required for data: 307853400
I0521 19:28:10.056995 17460 layer_factory.hpp:77] Creating layer conv5
I0521 19:28:10.057003 17460 net.cpp:86] Creating Layer conv5
I0521 19:28:10.057004 17460 net.cpp:408] conv5 <- conv4
I0521 19:28:10.057008 17460 net.cpp:382] conv5 -> conv5
I0521 19:28:10.063688 17460 net.cpp:124] Setting up conv5
I0521 19:28:10.063702 17460 net.cpp:131] Top shape: 50 256 12 12 (1843200)
I0521 19:28:10.063704 17460 net.cpp:139] Memory required for data: 315226200
I0521 19:28:10.063735 17460 layer_factory.hpp:77] Creating layer relu5
I0521 19:28:10.063740 17460 net.cpp:86] Creating Layer relu5
I0521 19:28:10.063742 17460 net.cpp:408] relu5 <- conv5
I0521 19:28:10.063745 17460 net.cpp:369] relu5 -> conv5 (in-place)
I0521 19:28:10.064169 17460 net.cpp:124] Setting up relu5
I0521 19:28:10.064182 17460 net.cpp:131] Top shape: 50 256 12 12 (1843200)
I0521 19:28:10.064182 17460 net.cpp:139] Memory required for data: 322599000
I0521 19:28:10.064184 17460 layer_factory.hpp:77] Creating layer pool5
I0521 19:28:10.064199 17460 net.cpp:86] Creating Layer pool5
I0521 19:28:10.064203 17460 net.cpp:408] pool5 <- conv5
I0521 19:28:10.064208 17460 net.cpp:382] pool5 -> pool5
I0521 19:28:10.064239 17460 net.cpp:124] Setting up pool5
I0521 19:28:10.064244 17460 net.cpp:131] Top shape: 50 256 6 6 (460800)
I0521 19:28:10.064245 17460 net.cpp:139] Memory required for data: 324442200
I0521 19:28:10.064247 17460 layer_factory.hpp:77] Creating layer fc6
I0521 19:28:10.064257 17460 net.cpp:86] Creating Layer fc6
I0521 19:28:10.064258 17460 net.cpp:408] fc6 <- pool5
I0521 19:28:10.064262 17460 net.cpp:382] fc6 -> fc6
I0521 19:28:10.329661 17460 net.cpp:124] Setting up fc6
I0521 19:28:10.329708 17460 net.cpp:131] Top shape: 50 4096 (204800)
I0521 19:28:10.329711 17460 net.cpp:139] Memory required for data: 325261400
I0521 19:28:10.329735 17460 layer_factory.hpp:77] Creating layer relu6
I0521 19:28:10.329749 17460 net.cpp:86] Creating Layer relu6
I0521 19:28:10.329754 17460 net.cpp:408] relu6 <- fc6
I0521 19:28:10.329761 17460 net.cpp:369] relu6 -> fc6 (in-place)
I0521 19:28:10.330648 17460 net.cpp:124] Setting up relu6
I0521 19:28:10.330662 17460 net.cpp:131] Top shape: 50 4096 (204800)
I0521 19:28:10.330663 17460 net.cpp:139] Memory required for data: 326080600
I0521 19:28:10.330665 17460 layer_factory.hpp:77] Creating layer drop6
I0521 19:28:10.330672 17460 net.cpp:86] Creating Layer drop6
I0521 19:28:10.330674 17460 net.cpp:408] drop6 <- fc6
I0521 19:28:10.330677 17460 net.cpp:369] drop6 -> fc6 (in-place)
I0521 19:28:10.330695 17460 net.cpp:124] Setting up drop6
I0521 19:28:10.330698 17460 net.cpp:131] Top shape: 50 4096 (204800)
I0521 19:28:10.330700 17460 net.cpp:139] Memory required for data: 326899800
I0521 19:28:10.330703 17460 layer_factory.hpp:77] Creating layer fc7
I0521 19:28:10.330708 17460 net.cpp:86] Creating Layer fc7
I0521 19:28:10.330709 17460 net.cpp:408] fc7 <- fc6
I0521 19:28:10.330713 17460 net.cpp:382] fc7 -> fc7
I0521 19:28:10.446908 17460 net.cpp:124] Setting up fc7
I0521 19:28:10.446956 17460 net.cpp:131] Top shape: 50 4096 (204800)
I0521 19:28:10.446959 17460 net.cpp:139] Memory required for data: 327719000
I0521 19:28:10.446974 17460 layer_factory.hpp:77] Creating layer relu7
I0521 19:28:10.446985 17460 net.cpp:86] Creating Layer relu7
I0521 19:28:10.446990 17460 net.cpp:408] relu7 <- fc7
I0521 19:28:10.446996 17460 net.cpp:369] relu7 -> fc7 (in-place)
I0521 19:28:10.447500 17460 net.cpp:124] Setting up relu7
I0521 19:28:10.447512 17460 net.cpp:131] Top shape: 50 4096 (204800)
I0521 19:28:10.447515 17460 net.cpp:139] Memory required for data: 328538200
I0521 19:28:10.447515 17460 layer_factory.hpp:77] Creating layer drop7
I0521 19:28:10.447523 17460 net.cpp:86] Creating Layer drop7
I0521 19:28:10.447525 17460 net.cpp:408] drop7 <- fc7
I0521 19:28:10.447527 17460 net.cpp:369] drop7 -> fc7 (in-place)
I0521 19:28:10.447546 17460 net.cpp:124] Setting up drop7
I0521 19:28:10.447548 17460 net.cpp:131] Top shape: 50 4096 (204800)
I0521 19:28:10.447551 17460 net.cpp:139] Memory required for data: 329357400
I0521 19:28:10.447551 17460 layer_factory.hpp:77] Creating layer fc8
I0521 19:28:10.447559 17460 net.cpp:86] Creating Layer fc8
I0521 19:28:10.447561 17460 net.cpp:408] fc8 <- fc7
I0521 19:28:10.447564 17460 net.cpp:382] fc8 -> fc8
I0521 19:28:10.448690 17460 net.cpp:124] Setting up fc8
I0521 19:28:10.448698 17460 net.cpp:131] Top shape: 50 43 (2150)
I0521 19:28:10.448699 17460 net.cpp:139] Memory required for data: 329366000
I0521 19:28:10.448704 17460 layer_factory.hpp:77] Creating layer fc8_fc8_0_split
I0521 19:28:10.448737 17460 net.cpp:86] Creating Layer fc8_fc8_0_split
I0521 19:28:10.448738 17460 net.cpp:408] fc8_fc8_0_split <- fc8
I0521 19:28:10.448743 17460 net.cpp:382] fc8_fc8_0_split -> fc8_fc8_0_split_0
I0521 19:28:10.448746 17460 net.cpp:382] fc8_fc8_0_split -> fc8_fc8_0_split_1
I0521 19:28:10.448770 17460 net.cpp:124] Setting up fc8_fc8_0_split
I0521 19:28:10.448776 17460 net.cpp:131] Top shape: 50 43 (2150)
I0521 19:28:10.448777 17460 net.cpp:131] Top shape: 50 43 (2150)
I0521 19:28:10.448778 17460 net.cpp:139] Memory required for data: 329383200
I0521 19:28:10.448781 17460 layer_factory.hpp:77] Creating layer accuracy
I0521 19:28:10.448786 17460 net.cpp:86] Creating Layer accuracy
I0521 19:28:10.448788 17460 net.cpp:408] accuracy <- fc8_fc8_0_split_0
I0521 19:28:10.448791 17460 net.cpp:408] accuracy <- label_data_1_split_0
I0521 19:28:10.448793 17460 net.cpp:382] accuracy -> accuracy
…
